program(1.0)
[buildInfo = dict<tensor<string, []>, tensor<string, []>>({{"coremlc-component-MIL", "4.28.3"}, {"coremlc-version", "1436.100.10"}})]
{
    func main<ios15>(tensor<fp32, [?, 320, 320, 3]> image) [FlexibleShapeInformation = tuple<tuple<tensor<string, []>, dict<tensor<string, []>, tensor<int32, [?]>>>>((("DefaultShapes", {{"image", [1, 320, 320, 3]}})))] {
            tensor<int32, []> ssd_concatenate_concat_axis = const()[name = tensor<string, []>("ssd_concatenate_concat_axis"), val = tensor<int32, []>(1)];
            tensor<int32, []> ssd_concatenate_1_concat_axis = const()[name = tensor<string, []>("ssd_concatenate_1_concat_axis"), val = tensor<int32, []>(1)];
            tensor<string, []> ssd_zero_padding2d_Pad_mode_0 = const()[name = tensor<string, []>("ssd_zero_padding2d_Pad_mode_0"), val = tensor<string, []>("constant")];
            tensor<int32, [4]> transpose_266_perm_0 = const()[name = tensor<string, []>("transpose_266_perm_0"), val = tensor<int32, [4]>([0, 3, 1, 2])];
            tensor<string, []> image_to_fp16_dtype_0 = const()[name = tensor<string, []>("image_to_fp16_dtype_0"), val = tensor<string, []>("fp16")];
            tensor<int32, [8]> pad_0_pad_0 = const()[name = tensor<string, []>("pad_0_pad_0"), val = tensor<int32, [8]>([0, 0, 0, 0, 1, 1, 1, 1])];
            tensor<fp16, []> ssd_zero_padding2d_Pad_constant_val_0_to_fp16 = const()[name = tensor<string, []>("ssd_zero_padding2d_Pad_constant_val_0_to_fp16"), val = tensor<fp16, []>(0x0p+0)];
            tensor<fp16, [?, 320, 320, 3]> cast_331 = cast(dtype = image_to_fp16_dtype_0, x = image);
            tensor<fp16, [?, 3, 320, 320]> transpose_311 = transpose(perm = transpose_266_perm_0, x = cast_331);
            tensor<fp16, [?, 3, 322, 322]> pad_0_cast = pad(constant_val = ssd_zero_padding2d_Pad_constant_val_0_to_fp16, mode = ssd_zero_padding2d_Pad_mode_0, pad = pad_0_pad_0, x = transpose_311);
            tensor<string, []> ssd_conv2d_Conv2Dx_pad_type_0 = const()[name = tensor<string, []>("ssd_conv2d_Conv2Dx_pad_type_0"), val = tensor<string, []>("valid")];
            tensor<int32, [2]> ssd_conv2d_Conv2Dx_strides_0 = const()[name = tensor<string, []>("ssd_conv2d_Conv2Dx_strides_0"), val = tensor<int32, [2]>([2, 2])];
            tensor<int32, [2]> ssd_conv2d_Conv2Dx_dilations_0 = const()[name = tensor<string, []>("ssd_conv2d_Conv2Dx_dilations_0"), val = tensor<int32, [2]>([1, 1])];
            tensor<int32, []> ssd_conv2d_Conv2Dx_groups_0 = const()[name = tensor<string, []>("ssd_conv2d_Conv2Dx_groups_0"), val = tensor<int32, []>(1)];
            tensor<int32, [4]> ssd_conv2d_Conv2Dx_pad_0 = const()[name = tensor<string, []>("ssd_conv2d_Conv2Dx_pad_0"), val = tensor<int32, [4]>([0, 0, 0, 0])];
            tensor<fp16, [16, 3, 3, 3]> ssd_batch_normalization_FusedBatchNormV3_nchw_weight_0_to_fp16 = const()[name = tensor<string, []>("ssd_batch_normalization_FusedBatchNormV3_nchw_weight_0_to_fp16"), val = tensor<fp16, [16, 3, 3, 3]>(BLOBFILE(path = tensor<string, []>("@model_path/weights/weight.bin"), offset = tensor<uint64, []>(64)))];
            tensor<fp16, [16]> ssd_batch_normalization_FusedBatchNormV3_nchw_bias_0_to_fp16 = const()[name = tensor<string, []>("ssd_batch_normalization_FusedBatchNormV3_nchw_bias_0_to_fp16"), val = tensor<fp16, [16]>(BLOBFILE(path = tensor<string, []>("@model_path/weights/weight.bin"), offset = tensor<uint64, []>(1024)))];
            tensor<fp16, [?, 16, 160, 160]> ssd_batch_normalization_FusedBatchNormV3_nchw_cast = conv(bias = ssd_batch_normalization_FusedBatchNormV3_nchw_bias_0_to_fp16, dilations = ssd_conv2d_Conv2Dx_dilations_0, groups = ssd_conv2d_Conv2Dx_groups_0, pad = ssd_conv2d_Conv2Dx_pad_0, pad_type = ssd_conv2d_Conv2Dx_pad_type_0, strides = ssd_conv2d_Conv2Dx_strides_0, weight = ssd_batch_normalization_FusedBatchNormV3_nchw_weight_0_to_fp16, x = pad_0_cast);
            tensor<fp16, []> ssd_rescaling_Cast_1_x_to_fp16 = const()[name = tensor<string, []>("ssd_rescaling_Cast_1_x_to_fp16"), val = tensor<fp16, []>(0x1.8p+1)];
            tensor<fp16, [?, 16, 160, 160]> ssd_rescaling_add_cast = add(x = ssd_batch_normalization_FusedBatchNormV3_nchw_cast, y = ssd_rescaling_Cast_1_x_to_fp16);
            tensor<fp16, [?, 16, 160, 160]> ssd_re_lu_43_Relu6_cast = relu6(x = ssd_rescaling_add_cast);
            tensor<fp16, []> ssd_rescaling_1_Cast_x_to_fp16 = const()[name = tensor<string, []>("ssd_rescaling_1_Cast_x_to_fp16"), val = tensor<fp16, []>(0x1.554p-3)];
            tensor<fp16, [?, 16, 160, 160]> ssd_rescaling_1_mul_cast = mul(x = ssd_re_lu_43_Relu6_cast, y = ssd_rescaling_1_Cast_x_to_fp16);
            tensor<fp16, [?, 16, 160, 160]> ssd_multiply_mul_cast = mul(x = ssd_batch_normalization_FusedBatchNormV3_nchw_cast, y = ssd_rescaling_1_mul_cast);
            tensor<string, []> ssd_depthwise_conv2d_depthwisex_pad_type_0 = const()[name = tensor<string, []>("ssd_depthwise_conv2d_depthwisex_pad_type_0"), val = tensor<string, []>("same")];
            tensor<int32, [2]> ssd_depthwise_conv2d_depthwisex_strides_0 = const()[name = tensor<string, []>("ssd_depthwise_conv2d_depthwisex_strides_0"), val = tensor<int32, [2]>([1, 1])];
            tensor<int32, [2]> ssd_depthwise_conv2d_depthwisex_dilations_0 = const()[name = tensor<string, []>("ssd_depthwise_conv2d_depthwisex_dilations_0"), val = tensor<int32, [2]>([1, 1])];
            tensor<int32, []> ssd_depthwise_conv2d_depthwisex_groups_0 = const()[name = tensor<string, []>("ssd_depthwise_conv2d_depthwisex_groups_0"), val = tensor<int32, []>(16)];
            tensor<int32, [4]> ssd_depthwise_conv2d_depthwisex_pad_0 = const()[name = tensor<string, []>("ssd_depthwise_conv2d_depthwisex_pad_0"), val = tensor<int32, [4]>([0, 0, 0, 0])];
            tensor<fp16, [16, 1, 3, 3]> ssd_batch_normalization_1_FusedBatchNormV3_nchw_weight_0_to_fp16 = const()[name = tensor<string, []>("ssd_batch_normalization_1_FusedBatchNormV3_nchw_weight_0_to_fp16"), val = tensor<fp16, [16, 1, 3, 3]>(BLOBFILE(path = tensor<string, []>("@model_path/weights/weight.bin"), offset = tensor<uint64, []>(1152)))];
            tensor<fp16, [16]> ssd_batch_normalization_1_FusedBatchNormV3_nchw_bias_0_to_fp16 = const()[name = tensor<string, []>("ssd_batch_normalization_1_FusedBatchNormV3_nchw_bias_0_to_fp16"), val = tensor<fp16, [16]>(BLOBFILE(path = tensor<string, []>("@model_path/weights/weight.bin"), offset = tensor<uint64, []>(1536)))];
            tensor<fp16, [?, 16, 160, 160]> ssd_batch_normalization_1_FusedBatchNormV3_nchw_cast = conv(bias = ssd_batch_normalization_1_FusedBatchNormV3_nchw_bias_0_to_fp16, dilations = ssd_depthwise_conv2d_depthwisex_dilations_0, groups = ssd_depthwise_conv2d_depthwisex_groups_0, pad = ssd_depthwise_conv2d_depthwisex_pad_0, pad_type = ssd_depthwise_conv2d_depthwisex_pad_type_0, strides = ssd_depthwise_conv2d_depthwisex_strides_0, weight = ssd_batch_normalization_1_FusedBatchNormV3_nchw_weight_0_to_fp16, x = ssd_multiply_mul_cast);
            tensor<fp16, [?, 16, 160, 160]> ssd_re_lu_Relu_cast = relu(x = ssd_batch_normalization_1_FusedBatchNormV3_nchw_cast);
            tensor<string, []> ssd_conv2d_1_Conv2Dx_pad_type_0 = const()[name = tensor<string, []>("ssd_conv2d_1_Conv2Dx_pad_type_0"), val = tensor<string, []>("same")];
            tensor<int32, [2]> ssd_conv2d_1_Conv2Dx_strides_0 = const()[name = tensor<string, []>("ssd_conv2d_1_Conv2Dx_strides_0"), val = tensor<int32, [2]>([1, 1])];
            tensor<int32, [2]> ssd_conv2d_1_Conv2Dx_dilations_0 = const()[name = tensor<string, []>("ssd_conv2d_1_Conv2Dx_dilations_0"), val = tensor<int32, [2]>([1, 1])];
            tensor<int32, []> ssd_conv2d_1_Conv2Dx_groups_0 = const()[name = tensor<string, []>("ssd_conv2d_1_Conv2Dx_groups_0"), val = tensor<int32, []>(1)];
            tensor<int32, [4]> ssd_conv2d_1_Conv2Dx_pad_0 = const()[name = tensor<string, []>("ssd_conv2d_1_Conv2Dx_pad_0"), val = tensor<int32, [4]>([0, 0, 0, 0])];
            tensor<fp16, [16, 16, 1, 1]> ssd_batch_normalization_2_FusedBatchNormV3_nchw_weight_0_to_fp16 = const()[name = tensor<string, []>("ssd_batch_normalization_2_FusedBatchNormV3_nchw_weight_0_to_fp16"), val = tensor<fp16, [16, 16, 1, 1]>(BLOBFILE(path = tensor<string, []>("@model_path/weights/weight.bin"), offset = tensor<uint64, []>(1664)))];
            tensor<fp16, [16]> ssd_batch_normalization_2_FusedBatchNormV3_nchw_bias_0_to_fp16 = const()[name = tensor<string, []>("ssd_batch_normalization_2_FusedBatchNormV3_nchw_bias_0_to_fp16"), val = tensor<fp16, [16]>(BLOBFILE(path = tensor<string, []>("@model_path/weights/weight.bin"), offset = tensor<uint64, []>(2240)))];
            tensor<fp16, [?, 16, 160, 160]> ssd_batch_normalization_2_FusedBatchNormV3_nchw_cast = conv(bias = ssd_batch_normalization_2_FusedBatchNormV3_nchw_bias_0_to_fp16, dilations = ssd_conv2d_1_Conv2Dx_dilations_0, groups = ssd_conv2d_1_Conv2Dx_groups_0, pad = ssd_conv2d_1_Conv2Dx_pad_0, pad_type = ssd_conv2d_1_Conv2Dx_pad_type_0, strides = ssd_conv2d_1_Conv2Dx_strides_0, weight = ssd_batch_normalization_2_FusedBatchNormV3_nchw_weight_0_to_fp16, x = ssd_re_lu_Relu_cast);
            tensor<fp16, [?, 16, 160, 160]> ssd_add_add_cast = add(x = ssd_batch_normalization_2_FusedBatchNormV3_nchw_cast, y = ssd_multiply_mul_cast);
            tensor<string, []> ssd_conv2d_2_Conv2Dx_pad_type_0 = const()[name = tensor<string, []>("ssd_conv2d_2_Conv2Dx_pad_type_0"), val = tensor<string, []>("same")];
            tensor<int32, [2]> ssd_conv2d_2_Conv2Dx_strides_0 = const()[name = tensor<string, []>("ssd_conv2d_2_Conv2Dx_strides_0"), val = tensor<int32, [2]>([1, 1])];
            tensor<int32, [2]> ssd_conv2d_2_Conv2Dx_dilations_0 = const()[name = tensor<string, []>("ssd_conv2d_2_Conv2Dx_dilations_0"), val = tensor<int32, [2]>([1, 1])];
            tensor<int32, []> ssd_conv2d_2_Conv2Dx_groups_0 = const()[name = tensor<string, []>("ssd_conv2d_2_Conv2Dx_groups_0"), val = tensor<int32, []>(1)];
            tensor<int32, [4]> ssd_conv2d_2_Conv2Dx_pad_0 = const()[name = tensor<string, []>("ssd_conv2d_2_Conv2Dx_pad_0"), val = tensor<int32, [4]>([0, 0, 0, 0])];
            tensor<fp16, [64, 16, 1, 1]> ssd_batch_normalization_3_FusedBatchNormV3_nchw_weight_0_to_fp16 = const()[name = tensor<string, []>("ssd_batch_normalization_3_FusedBatchNormV3_nchw_weight_0_to_fp16"), val = tensor<fp16, [64, 16, 1, 1]>(BLOBFILE(path = tensor<string, []>("@model_path/weights/weight.bin"), offset = tensor<uint64, []>(2368)))];
            tensor<fp16, [64]> ssd_batch_normalization_3_FusedBatchNormV3_nchw_bias_0_to_fp16 = const()[name = tensor<string, []>("ssd_batch_normalization_3_FusedBatchNormV3_nchw_bias_0_to_fp16"), val = tensor<fp16, [64]>(BLOBFILE(path = tensor<string, []>("@model_path/weights/weight.bin"), offset = tensor<uint64, []>(4480)))];
            tensor<fp16, [?, 64, 160, 160]> ssd_batch_normalization_3_FusedBatchNormV3_nchw_cast = conv(bias = ssd_batch_normalization_3_FusedBatchNormV3_nchw_bias_0_to_fp16, dilations = ssd_conv2d_2_Conv2Dx_dilations_0, groups = ssd_conv2d_2_Conv2Dx_groups_0, pad = ssd_conv2d_2_Conv2Dx_pad_0, pad_type = ssd_conv2d_2_Conv2Dx_pad_type_0, strides = ssd_conv2d_2_Conv2Dx_strides_0, weight = ssd_batch_normalization_3_FusedBatchNormV3_nchw_weight_0_to_fp16, x = ssd_add_add_cast);
            tensor<fp16, [?, 64, 160, 160]> ssd_re_lu_1_Relu_cast = relu(x = ssd_batch_normalization_3_FusedBatchNormV3_nchw_cast);
            tensor<string, []> ssd_zero_padding2d_1_Pad_mode_0 = const()[name = tensor<string, []>("ssd_zero_padding2d_1_Pad_mode_0"), val = tensor<string, []>("constant")];
            tensor<int32, [8]> pad_1_pad_0 = const()[name = tensor<string, []>("pad_1_pad_0"), val = tensor<int32, [8]>([0, 0, 0, 0, 1, 1, 1, 1])];
            tensor<fp16, []> ssd_zero_padding2d_1_Pad_constant_val_0_to_fp16 = const()[name = tensor<string, []>("ssd_zero_padding2d_1_Pad_constant_val_0_to_fp16"), val = tensor<fp16, []>(0x0p+0)];
            tensor<fp16, [?, 64, 162, 162]> pad_1_cast = pad(constant_val = ssd_zero_padding2d_1_Pad_constant_val_0_to_fp16, mode = ssd_zero_padding2d_1_Pad_mode_0, pad = pad_1_pad_0, x = ssd_re_lu_1_Relu_cast);
            tensor<string, []> ssd_depthwise_conv2d_1_depthwisex_pad_type_0 = const()[name = tensor<string, []>("ssd_depthwise_conv2d_1_depthwisex_pad_type_0"), val = tensor<string, []>("valid")];
            tensor<int32, [2]> ssd_depthwise_conv2d_1_depthwisex_strides_0 = const()[name = tensor<string, []>("ssd_depthwise_conv2d_1_depthwisex_strides_0"), val = tensor<int32, [2]>([2, 2])];
            tensor<int32, [2]> ssd_depthwise_conv2d_1_depthwisex_dilations_0 = const()[name = tensor<string, []>("ssd_depthwise_conv2d_1_depthwisex_dilations_0"), val = tensor<int32, [2]>([1, 1])];
            tensor<int32, []> ssd_depthwise_conv2d_1_depthwisex_groups_0 = const()[name = tensor<string, []>("ssd_depthwise_conv2d_1_depthwisex_groups_0"), val = tensor<int32, []>(64)];
            tensor<int32, [4]> ssd_depthwise_conv2d_1_depthwisex_pad_0 = const()[name = tensor<string, []>("ssd_depthwise_conv2d_1_depthwisex_pad_0"), val = tensor<int32, [4]>([0, 0, 0, 0])];
            tensor<fp16, [64, 1, 3, 3]> ssd_batch_normalization_4_FusedBatchNormV3_nchw_weight_0_to_fp16 = const()[name = tensor<string, []>("ssd_batch_normalization_4_FusedBatchNormV3_nchw_weight_0_to_fp16"), val = tensor<fp16, [64, 1, 3, 3]>(BLOBFILE(path = tensor<string, []>("@model_path/weights/weight.bin"), offset = tensor<uint64, []>(4672)))];
            tensor<fp16, [64]> ssd_batch_normalization_4_FusedBatchNormV3_nchw_bias_0_to_fp16 = const()[name = tensor<string, []>("ssd_batch_normalization_4_FusedBatchNormV3_nchw_bias_0_to_fp16"), val = tensor<fp16, [64]>(BLOBFILE(path = tensor<string, []>("@model_path/weights/weight.bin"), offset = tensor<uint64, []>(5888)))];
            tensor<fp16, [?, 64, 80, 80]> ssd_batch_normalization_4_FusedBatchNormV3_nchw_cast = conv(bias = ssd_batch_normalization_4_FusedBatchNormV3_nchw_bias_0_to_fp16, dilations = ssd_depthwise_conv2d_1_depthwisex_dilations_0, groups = ssd_depthwise_conv2d_1_depthwisex_groups_0, pad = ssd_depthwise_conv2d_1_depthwisex_pad_0, pad_type = ssd_depthwise_conv2d_1_depthwisex_pad_type_0, strides = ssd_depthwise_conv2d_1_depthwisex_strides_0, weight = ssd_batch_normalization_4_FusedBatchNormV3_nchw_weight_0_to_fp16, x = pad_1_cast);
            tensor<fp16, [?, 64, 80, 80]> ssd_re_lu_2_Relu_cast = relu(x = ssd_batch_normalization_4_FusedBatchNormV3_nchw_cast);
            tensor<string, []> ssd_conv2d_3_Conv2Dx_pad_type_0 = const()[name = tensor<string, []>("ssd_conv2d_3_Conv2Dx_pad_type_0"), val = tensor<string, []>("same")];
            tensor<int32, [2]> ssd_conv2d_3_Conv2Dx_strides_0 = const()[name = tensor<string, []>("ssd_conv2d_3_Conv2Dx_strides_0"), val = tensor<int32, [2]>([1, 1])];
            tensor<int32, [2]> ssd_conv2d_3_Conv2Dx_dilations_0 = const()[name = tensor<string, []>("ssd_conv2d_3_Conv2Dx_dilations_0"), val = tensor<int32, [2]>([1, 1])];
            tensor<int32, []> ssd_conv2d_3_Conv2Dx_groups_0 = const()[name = tensor<string, []>("ssd_conv2d_3_Conv2Dx_groups_0"), val = tensor<int32, []>(1)];
            tensor<int32, [4]> ssd_conv2d_3_Conv2Dx_pad_0 = const()[name = tensor<string, []>("ssd_conv2d_3_Conv2Dx_pad_0"), val = tensor<int32, [4]>([0, 0, 0, 0])];
            tensor<fp16, [24, 64, 1, 1]> ssd_batch_normalization_5_FusedBatchNormV3_nchw_weight_0_to_fp16 = const()[name = tensor<string, []>("ssd_batch_normalization_5_FusedBatchNormV3_nchw_weight_0_to_fp16"), val = tensor<fp16, [24, 64, 1, 1]>(BLOBFILE(path = tensor<string, []>("@model_path/weights/weight.bin"), offset = tensor<uint64, []>(6080)))];
            tensor<fp16, [24]> ssd_batch_normalization_5_FusedBatchNormV3_nchw_bias_0_to_fp16 = const()[name = tensor<string, []>("ssd_batch_normalization_5_FusedBatchNormV3_nchw_bias_0_to_fp16"), val = tensor<fp16, [24]>(BLOBFILE(path = tensor<string, []>("@model_path/weights/weight.bin"), offset = tensor<uint64, []>(9216)))];
            tensor<fp16, [?, 24, 80, 80]> ssd_batch_normalization_5_FusedBatchNormV3_nchw_cast = conv(bias = ssd_batch_normalization_5_FusedBatchNormV3_nchw_bias_0_to_fp16, dilations = ssd_conv2d_3_Conv2Dx_dilations_0, groups = ssd_conv2d_3_Conv2Dx_groups_0, pad = ssd_conv2d_3_Conv2Dx_pad_0, pad_type = ssd_conv2d_3_Conv2Dx_pad_type_0, strides = ssd_conv2d_3_Conv2Dx_strides_0, weight = ssd_batch_normalization_5_FusedBatchNormV3_nchw_weight_0_to_fp16, x = ssd_re_lu_2_Relu_cast);
            tensor<string, []> ssd_conv2d_4_Conv2Dx_pad_type_0 = const()[name = tensor<string, []>("ssd_conv2d_4_Conv2Dx_pad_type_0"), val = tensor<string, []>("same")];
            tensor<int32, [2]> ssd_conv2d_4_Conv2Dx_strides_0 = const()[name = tensor<string, []>("ssd_conv2d_4_Conv2Dx_strides_0"), val = tensor<int32, [2]>([1, 1])];
            tensor<int32, [2]> ssd_conv2d_4_Conv2Dx_dilations_0 = const()[name = tensor<string, []>("ssd_conv2d_4_Conv2Dx_dilations_0"), val = tensor<int32, [2]>([1, 1])];
            tensor<int32, []> ssd_conv2d_4_Conv2Dx_groups_0 = const()[name = tensor<string, []>("ssd_conv2d_4_Conv2Dx_groups_0"), val = tensor<int32, []>(1)];
            tensor<int32, [4]> ssd_conv2d_4_Conv2Dx_pad_0 = const()[name = tensor<string, []>("ssd_conv2d_4_Conv2Dx_pad_0"), val = tensor<int32, [4]>([0, 0, 0, 0])];
            tensor<fp16, [72, 24, 1, 1]> ssd_batch_normalization_6_FusedBatchNormV3_nchw_weight_0_to_fp16 = const()[name = tensor<string, []>("ssd_batch_normalization_6_FusedBatchNormV3_nchw_weight_0_to_fp16"), val = tensor<fp16, [72, 24, 1, 1]>(BLOBFILE(path = tensor<string, []>("@model_path/weights/weight.bin"), offset = tensor<uint64, []>(9344)))];
            tensor<fp16, [72]> ssd_batch_normalization_6_FusedBatchNormV3_nchw_bias_0_to_fp16 = const()[name = tensor<string, []>("ssd_batch_normalization_6_FusedBatchNormV3_nchw_bias_0_to_fp16"), val = tensor<fp16, [72]>(BLOBFILE(path = tensor<string, []>("@model_path/weights/weight.bin"), offset = tensor<uint64, []>(12864)))];
            tensor<fp16, [?, 72, 80, 80]> ssd_batch_normalization_6_FusedBatchNormV3_nchw_cast = conv(bias = ssd_batch_normalization_6_FusedBatchNormV3_nchw_bias_0_to_fp16, dilations = ssd_conv2d_4_Conv2Dx_dilations_0, groups = ssd_conv2d_4_Conv2Dx_groups_0, pad = ssd_conv2d_4_Conv2Dx_pad_0, pad_type = ssd_conv2d_4_Conv2Dx_pad_type_0, strides = ssd_conv2d_4_Conv2Dx_strides_0, weight = ssd_batch_normalization_6_FusedBatchNormV3_nchw_weight_0_to_fp16, x = ssd_batch_normalization_5_FusedBatchNormV3_nchw_cast);
            tensor<fp16, [?, 72, 80, 80]> ssd_re_lu_3_Relu_cast = relu(x = ssd_batch_normalization_6_FusedBatchNormV3_nchw_cast);
            tensor<string, []> ssd_depthwise_conv2d_2_depthwisex_pad_type_0 = const()[name = tensor<string, []>("ssd_depthwise_conv2d_2_depthwisex_pad_type_0"), val = tensor<string, []>("same")];
            tensor<int32, [2]> ssd_depthwise_conv2d_2_depthwisex_strides_0 = const()[name = tensor<string, []>("ssd_depthwise_conv2d_2_depthwisex_strides_0"), val = tensor<int32, [2]>([1, 1])];
            tensor<int32, [2]> ssd_depthwise_conv2d_2_depthwisex_dilations_0 = const()[name = tensor<string, []>("ssd_depthwise_conv2d_2_depthwisex_dilations_0"), val = tensor<int32, [2]>([1, 1])];
            tensor<int32, []> ssd_depthwise_conv2d_2_depthwisex_groups_0 = const()[name = tensor<string, []>("ssd_depthwise_conv2d_2_depthwisex_groups_0"), val = tensor<int32, []>(72)];
            tensor<int32, [4]> ssd_depthwise_conv2d_2_depthwisex_pad_0 = const()[name = tensor<string, []>("ssd_depthwise_conv2d_2_depthwisex_pad_0"), val = tensor<int32, [4]>([0, 0, 0, 0])];
            tensor<fp16, [72, 1, 3, 3]> ssd_batch_normalization_7_FusedBatchNormV3_nchw_weight_0_to_fp16 = const()[name = tensor<string, []>("ssd_batch_normalization_7_FusedBatchNormV3_nchw_weight_0_to_fp16"), val = tensor<fp16, [72, 1, 3, 3]>(BLOBFILE(path = tensor<string, []>("@model_path/weights/weight.bin"), offset = tensor<uint64, []>(13120)))];
            tensor<fp16, [72]> ssd_batch_normalization_7_FusedBatchNormV3_nchw_bias_0_to_fp16 = const()[name = tensor<string, []>("ssd_batch_normalization_7_FusedBatchNormV3_nchw_bias_0_to_fp16"), val = tensor<fp16, [72]>(BLOBFILE(path = tensor<string, []>("@model_path/weights/weight.bin"), offset = tensor<uint64, []>(14528)))];
            tensor<fp16, [?, 72, 80, 80]> ssd_batch_normalization_7_FusedBatchNormV3_nchw_cast = conv(bias = ssd_batch_normalization_7_FusedBatchNormV3_nchw_bias_0_to_fp16, dilations = ssd_depthwise_conv2d_2_depthwisex_dilations_0, groups = ssd_depthwise_conv2d_2_depthwisex_groups_0, pad = ssd_depthwise_conv2d_2_depthwisex_pad_0, pad_type = ssd_depthwise_conv2d_2_depthwisex_pad_type_0, strides = ssd_depthwise_conv2d_2_depthwisex_strides_0, weight = ssd_batch_normalization_7_FusedBatchNormV3_nchw_weight_0_to_fp16, x = ssd_re_lu_3_Relu_cast);
            tensor<fp16, [?, 72, 80, 80]> ssd_re_lu_4_Relu_cast = relu(x = ssd_batch_normalization_7_FusedBatchNormV3_nchw_cast);
            tensor<string, []> ssd_conv2d_5_Conv2Dx_pad_type_0 = const()[name = tensor<string, []>("ssd_conv2d_5_Conv2Dx_pad_type_0"), val = tensor<string, []>("same")];
            tensor<int32, [2]> ssd_conv2d_5_Conv2Dx_strides_0 = const()[name = tensor<string, []>("ssd_conv2d_5_Conv2Dx_strides_0"), val = tensor<int32, [2]>([1, 1])];
            tensor<int32, [2]> ssd_conv2d_5_Conv2Dx_dilations_0 = const()[name = tensor<string, []>("ssd_conv2d_5_Conv2Dx_dilations_0"), val = tensor<int32, [2]>([1, 1])];
            tensor<int32, []> ssd_conv2d_5_Conv2Dx_groups_0 = const()[name = tensor<string, []>("ssd_conv2d_5_Conv2Dx_groups_0"), val = tensor<int32, []>(1)];
            tensor<int32, [4]> ssd_conv2d_5_Conv2Dx_pad_0 = const()[name = tensor<string, []>("ssd_conv2d_5_Conv2Dx_pad_0"), val = tensor<int32, [4]>([0, 0, 0, 0])];
            tensor<fp16, [24, 72, 1, 1]> ssd_batch_normalization_8_FusedBatchNormV3_nchw_weight_0_to_fp16 = const()[name = tensor<string, []>("ssd_batch_normalization_8_FusedBatchNormV3_nchw_weight_0_to_fp16"), val = tensor<fp16, [24, 72, 1, 1]>(BLOBFILE(path = tensor<string, []>("@model_path/weights/weight.bin"), offset = tensor<uint64, []>(14784)))];
            tensor<fp16, [24]> ssd_batch_normalization_8_FusedBatchNormV3_nchw_bias_0_to_fp16 = const()[name = tensor<string, []>("ssd_batch_normalization_8_FusedBatchNormV3_nchw_bias_0_to_fp16"), val = tensor<fp16, [24]>(BLOBFILE(path = tensor<string, []>("@model_path/weights/weight.bin"), offset = tensor<uint64, []>(18304)))];
            tensor<fp16, [?, 24, 80, 80]> ssd_batch_normalization_8_FusedBatchNormV3_nchw_cast = conv(bias = ssd_batch_normalization_8_FusedBatchNormV3_nchw_bias_0_to_fp16, dilations = ssd_conv2d_5_Conv2Dx_dilations_0, groups = ssd_conv2d_5_Conv2Dx_groups_0, pad = ssd_conv2d_5_Conv2Dx_pad_0, pad_type = ssd_conv2d_5_Conv2Dx_pad_type_0, strides = ssd_conv2d_5_Conv2Dx_strides_0, weight = ssd_batch_normalization_8_FusedBatchNormV3_nchw_weight_0_to_fp16, x = ssd_re_lu_4_Relu_cast);
            tensor<fp16, [?, 24, 80, 80]> ssd_add_1_add_cast = add(x = ssd_batch_normalization_8_FusedBatchNormV3_nchw_cast, y = ssd_batch_normalization_5_FusedBatchNormV3_nchw_cast);
            tensor<string, []> ssd_conv2d_6_Conv2Dx_pad_type_0 = const()[name = tensor<string, []>("ssd_conv2d_6_Conv2Dx_pad_type_0"), val = tensor<string, []>("same")];
            tensor<int32, [2]> ssd_conv2d_6_Conv2Dx_strides_0 = const()[name = tensor<string, []>("ssd_conv2d_6_Conv2Dx_strides_0"), val = tensor<int32, [2]>([1, 1])];
            tensor<int32, [2]> ssd_conv2d_6_Conv2Dx_dilations_0 = const()[name = tensor<string, []>("ssd_conv2d_6_Conv2Dx_dilations_0"), val = tensor<int32, [2]>([1, 1])];
            tensor<int32, []> ssd_conv2d_6_Conv2Dx_groups_0 = const()[name = tensor<string, []>("ssd_conv2d_6_Conv2Dx_groups_0"), val = tensor<int32, []>(1)];
            tensor<int32, [4]> ssd_conv2d_6_Conv2Dx_pad_0 = const()[name = tensor<string, []>("ssd_conv2d_6_Conv2Dx_pad_0"), val = tensor<int32, [4]>([0, 0, 0, 0])];
            tensor<fp16, [72, 24, 1, 1]> ssd_batch_normalization_9_FusedBatchNormV3_nchw_weight_0_to_fp16 = const()[name = tensor<string, []>("ssd_batch_normalization_9_FusedBatchNormV3_nchw_weight_0_to_fp16"), val = tensor<fp16, [72, 24, 1, 1]>(BLOBFILE(path = tensor<string, []>("@model_path/weights/weight.bin"), offset = tensor<uint64, []>(18432)))];
            tensor<fp16, [72]> ssd_batch_normalization_9_FusedBatchNormV3_nchw_bias_0_to_fp16 = const()[name = tensor<string, []>("ssd_batch_normalization_9_FusedBatchNormV3_nchw_bias_0_to_fp16"), val = tensor<fp16, [72]>(BLOBFILE(path = tensor<string, []>("@model_path/weights/weight.bin"), offset = tensor<uint64, []>(21952)))];
            tensor<fp16, [?, 72, 80, 80]> ssd_batch_normalization_9_FusedBatchNormV3_nchw_cast = conv(bias = ssd_batch_normalization_9_FusedBatchNormV3_nchw_bias_0_to_fp16, dilations = ssd_conv2d_6_Conv2Dx_dilations_0, groups = ssd_conv2d_6_Conv2Dx_groups_0, pad = ssd_conv2d_6_Conv2Dx_pad_0, pad_type = ssd_conv2d_6_Conv2Dx_pad_type_0, strides = ssd_conv2d_6_Conv2Dx_strides_0, weight = ssd_batch_normalization_9_FusedBatchNormV3_nchw_weight_0_to_fp16, x = ssd_add_1_add_cast);
            tensor<fp16, [?, 72, 80, 80]> ssd_re_lu_5_Relu_cast = relu(x = ssd_batch_normalization_9_FusedBatchNormV3_nchw_cast);
            tensor<string, []> ssd_zero_padding2d_2_Pad_mode_0 = const()[name = tensor<string, []>("ssd_zero_padding2d_2_Pad_mode_0"), val = tensor<string, []>("constant")];
            tensor<int32, [8]> pad_2_pad_0 = const()[name = tensor<string, []>("pad_2_pad_0"), val = tensor<int32, [8]>([0, 0, 0, 0, 2, 2, 2, 2])];
            tensor<fp16, []> ssd_zero_padding2d_2_Pad_constant_val_0_to_fp16 = const()[name = tensor<string, []>("ssd_zero_padding2d_2_Pad_constant_val_0_to_fp16"), val = tensor<fp16, []>(0x0p+0)];
            tensor<fp16, [?, 72, 84, 84]> pad_2_cast = pad(constant_val = ssd_zero_padding2d_2_Pad_constant_val_0_to_fp16, mode = ssd_zero_padding2d_2_Pad_mode_0, pad = pad_2_pad_0, x = ssd_re_lu_5_Relu_cast);
            tensor<string, []> ssd_depthwise_conv2d_3_depthwisex_pad_type_0 = const()[name = tensor<string, []>("ssd_depthwise_conv2d_3_depthwisex_pad_type_0"), val = tensor<string, []>("valid")];
            tensor<int32, [2]> ssd_depthwise_conv2d_3_depthwisex_strides_0 = const()[name = tensor<string, []>("ssd_depthwise_conv2d_3_depthwisex_strides_0"), val = tensor<int32, [2]>([2, 2])];
            tensor<int32, [2]> ssd_depthwise_conv2d_3_depthwisex_dilations_0 = const()[name = tensor<string, []>("ssd_depthwise_conv2d_3_depthwisex_dilations_0"), val = tensor<int32, [2]>([1, 1])];
            tensor<int32, []> ssd_depthwise_conv2d_3_depthwisex_groups_0 = const()[name = tensor<string, []>("ssd_depthwise_conv2d_3_depthwisex_groups_0"), val = tensor<int32, []>(72)];
            tensor<int32, [4]> ssd_depthwise_conv2d_3_depthwisex_pad_0 = const()[name = tensor<string, []>("ssd_depthwise_conv2d_3_depthwisex_pad_0"), val = tensor<int32, [4]>([0, 0, 0, 0])];
            tensor<fp16, [72, 1, 5, 5]> ssd_batch_normalization_10_FusedBatchNormV3_nchw_weight_0_to_fp16 = const()[name = tensor<string, []>("ssd_batch_normalization_10_FusedBatchNormV3_nchw_weight_0_to_fp16"), val = tensor<fp16, [72, 1, 5, 5]>(BLOBFILE(path = tensor<string, []>("@model_path/weights/weight.bin"), offset = tensor<uint64, []>(22208)))];
            tensor<fp16, [72]> ssd_batch_normalization_10_FusedBatchNormV3_nchw_bias_0_to_fp16 = const()[name = tensor<string, []>("ssd_batch_normalization_10_FusedBatchNormV3_nchw_bias_0_to_fp16"), val = tensor<fp16, [72]>(BLOBFILE(path = tensor<string, []>("@model_path/weights/weight.bin"), offset = tensor<uint64, []>(25920)))];
            tensor<fp16, [?, 72, 40, 40]> ssd_batch_normalization_10_FusedBatchNormV3_nchw_cast = conv(bias = ssd_batch_normalization_10_FusedBatchNormV3_nchw_bias_0_to_fp16, dilations = ssd_depthwise_conv2d_3_depthwisex_dilations_0, groups = ssd_depthwise_conv2d_3_depthwisex_groups_0, pad = ssd_depthwise_conv2d_3_depthwisex_pad_0, pad_type = ssd_depthwise_conv2d_3_depthwisex_pad_type_0, strides = ssd_depthwise_conv2d_3_depthwisex_strides_0, weight = ssd_batch_normalization_10_FusedBatchNormV3_nchw_weight_0_to_fp16, x = pad_2_cast);
            tensor<fp16, [?, 72, 40, 40]> ssd_re_lu_6_Relu_cast = relu(x = ssd_batch_normalization_10_FusedBatchNormV3_nchw_cast);
            tensor<int32, [2]> ssd_global_average_pooling2d_Mean_axes_0 = const()[name = tensor<string, []>("ssd_global_average_pooling2d_Mean_axes_0"), val = tensor<int32, [2]>([1, 2])];
            tensor<bool, []> ssd_global_average_pooling2d_Mean_keep_dims_0 = const()[name = tensor<string, []>("ssd_global_average_pooling2d_Mean_keep_dims_0"), val = tensor<bool, []>(false)];
            tensor<int32, [4]> transpose_275_perm_0 = const()[name = tensor<string, []>("transpose_275_perm_0"), val = tensor<int32, [4]>([0, 2, 3, 1])];
            tensor<fp16, [?, 40, 40, 72]> transpose_310 = transpose(perm = transpose_275_perm_0, x = ssd_re_lu_6_Relu_cast);
            tensor<fp16, [?, 72]> ssd_global_average_pooling2d_Mean_cast = reduce_mean(axes = ssd_global_average_pooling2d_Mean_axes_0, keep_dims = ssd_global_average_pooling2d_Mean_keep_dims_0, x = transpose_310);
            tensor<int32, [4]> ssd_reshape_Reshape_shapex = const()[name = tensor<string, []>("ssd_reshape_Reshape_shapex"), val = tensor<int32, [4]>([-1, 1, 1, 72])];
            tensor<fp16, [?, 1, 1, 72]> ssd_reshape_Reshape_cast = reshape(shape = ssd_reshape_Reshape_shapex, x = ssd_global_average_pooling2d_Mean_cast);
            tensor<int32, [4]> transpose_34_perm_0 = const()[name = tensor<string, []>("transpose_34_perm_0"), val = tensor<int32, [4]>([0, 3, 1, 2])];
            tensor<string, []> ssd_sequential_2_conv2d_7_Conv2Dx_pad_type_0 = const()[name = tensor<string, []>("ssd_sequential_2_conv2d_7_Conv2Dx_pad_type_0"), val = tensor<string, []>("valid")];
            tensor<int32, [2]> ssd_sequential_2_conv2d_7_Conv2Dx_strides_0 = const()[name = tensor<string, []>("ssd_sequential_2_conv2d_7_Conv2Dx_strides_0"), val = tensor<int32, [2]>([1, 1])];
            tensor<int32, [2]> ssd_sequential_2_conv2d_7_Conv2Dx_dilations_0 = const()[name = tensor<string, []>("ssd_sequential_2_conv2d_7_Conv2Dx_dilations_0"), val = tensor<int32, [2]>([1, 1])];
            tensor<int32, []> ssd_sequential_2_conv2d_7_Conv2Dx_groups_0 = const()[name = tensor<string, []>("ssd_sequential_2_conv2d_7_Conv2Dx_groups_0"), val = tensor<int32, []>(1)];
            tensor<int32, [4]> ssd_sequential_2_conv2d_7_Conv2Dx_pad_0 = const()[name = tensor<string, []>("ssd_sequential_2_conv2d_7_Conv2Dx_pad_0"), val = tensor<int32, [4]>([0, 0, 0, 0])];
            tensor<fp16, [24, 72, 1, 1]> transpose_33_to_fp16 = const()[name = tensor<string, []>("transpose_33_to_fp16"), val = tensor<fp16, [24, 72, 1, 1]>(BLOBFILE(path = tensor<string, []>("@model_path/weights/weight.bin"), offset = tensor<uint64, []>(26176)))];
            tensor<fp16, [24]> const_16_to_fp16 = const()[name = tensor<string, []>("const_16_to_fp16"), val = tensor<fp16, [24]>(BLOBFILE(path = tensor<string, []>("@model_path/weights/weight.bin"), offset = tensor<uint64, []>(29696)))];
            tensor<fp16, [?, 72, 1, 1]> transpose_309 = transpose(perm = transpose_34_perm_0, x = ssd_reshape_Reshape_cast);
            tensor<fp16, [?, 24, 1, 1]> ssd_sequential_2_conv2d_7_BiasAdd_cast = conv(bias = const_16_to_fp16, dilations = ssd_sequential_2_conv2d_7_Conv2Dx_dilations_0, groups = ssd_sequential_2_conv2d_7_Conv2Dx_groups_0, pad = ssd_sequential_2_conv2d_7_Conv2Dx_pad_0, pad_type = ssd_sequential_2_conv2d_7_Conv2Dx_pad_type_0, strides = ssd_sequential_2_conv2d_7_Conv2Dx_strides_0, weight = transpose_33_to_fp16, x = transpose_309);
            tensor<fp16, [?, 24, 1, 1]> ssd_sequential_2_re_lu_7_Relu_cast = relu(x = ssd_sequential_2_conv2d_7_BiasAdd_cast);
            tensor<string, []> ssd_sequential_2_conv2d_8_Conv2Dx_pad_type_0 = const()[name = tensor<string, []>("ssd_sequential_2_conv2d_8_Conv2Dx_pad_type_0"), val = tensor<string, []>("valid")];
            tensor<int32, [2]> ssd_sequential_2_conv2d_8_Conv2Dx_strides_0 = const()[name = tensor<string, []>("ssd_sequential_2_conv2d_8_Conv2Dx_strides_0"), val = tensor<int32, [2]>([1, 1])];
            tensor<int32, [2]> ssd_sequential_2_conv2d_8_Conv2Dx_dilations_0 = const()[name = tensor<string, []>("ssd_sequential_2_conv2d_8_Conv2Dx_dilations_0"), val = tensor<int32, [2]>([1, 1])];
            tensor<int32, []> ssd_sequential_2_conv2d_8_Conv2Dx_groups_0 = const()[name = tensor<string, []>("ssd_sequential_2_conv2d_8_Conv2Dx_groups_0"), val = tensor<int32, []>(1)];
            tensor<int32, [4]> ssd_sequential_2_conv2d_8_Conv2Dx_pad_0 = const()[name = tensor<string, []>("ssd_sequential_2_conv2d_8_Conv2Dx_pad_0"), val = tensor<int32, [4]>([0, 0, 0, 0])];
            tensor<fp16, [72, 24, 1, 1]> transpose_35_to_fp16 = const()[name = tensor<string, []>("transpose_35_to_fp16"), val = tensor<fp16, [72, 24, 1, 1]>(BLOBFILE(path = tensor<string, []>("@model_path/weights/weight.bin"), offset = tensor<uint64, []>(29824)))];
            tensor<fp16, [72]> const_18_to_fp16 = const()[name = tensor<string, []>("const_18_to_fp16"), val = tensor<fp16, [72]>(BLOBFILE(path = tensor<string, []>("@model_path/weights/weight.bin"), offset = tensor<uint64, []>(33344)))];
            tensor<fp16, [?, 72, 1, 1]> ssd_rescaling_2_add_cast = conv(bias = const_18_to_fp16, dilations = ssd_sequential_2_conv2d_8_Conv2Dx_dilations_0, groups = ssd_sequential_2_conv2d_8_Conv2Dx_groups_0, pad = ssd_sequential_2_conv2d_8_Conv2Dx_pad_0, pad_type = ssd_sequential_2_conv2d_8_Conv2Dx_pad_type_0, strides = ssd_sequential_2_conv2d_8_Conv2Dx_strides_0, weight = transpose_35_to_fp16, x = ssd_sequential_2_re_lu_7_Relu_cast);
            tensor<fp16, [?, 72, 1, 1]> ssd_re_lu_44_Relu6_cast = relu6(x = ssd_rescaling_2_add_cast);
            tensor<fp16, []> ssd_rescaling_3_Cast_x_to_fp16 = const()[name = tensor<string, []>("ssd_rescaling_3_Cast_x_to_fp16"), val = tensor<fp16, []>(0x1.554p-3)];
            tensor<fp16, [?, 72, 1, 1]> ssd_rescaling_3_mul_cast = mul(x = ssd_re_lu_44_Relu6_cast, y = ssd_rescaling_3_Cast_x_to_fp16);
            tensor<fp16, [?, 72, 40, 40]> ssd_multiply_1_mul_cast = mul(x = ssd_re_lu_6_Relu_cast, y = ssd_rescaling_3_mul_cast);
            tensor<string, []> ssd_conv2d_9_Conv2Dx_pad_type_0 = const()[name = tensor<string, []>("ssd_conv2d_9_Conv2Dx_pad_type_0"), val = tensor<string, []>("same")];
            tensor<int32, [2]> ssd_conv2d_9_Conv2Dx_strides_0 = const()[name = tensor<string, []>("ssd_conv2d_9_Conv2Dx_strides_0"), val = tensor<int32, [2]>([1, 1])];
            tensor<int32, [2]> ssd_conv2d_9_Conv2Dx_dilations_0 = const()[name = tensor<string, []>("ssd_conv2d_9_Conv2Dx_dilations_0"), val = tensor<int32, [2]>([1, 1])];
            tensor<int32, []> ssd_conv2d_9_Conv2Dx_groups_0 = const()[name = tensor<string, []>("ssd_conv2d_9_Conv2Dx_groups_0"), val = tensor<int32, []>(1)];
            tensor<int32, [4]> ssd_conv2d_9_Conv2Dx_pad_0 = const()[name = tensor<string, []>("ssd_conv2d_9_Conv2Dx_pad_0"), val = tensor<int32, [4]>([0, 0, 0, 0])];
            tensor<fp16, [40, 72, 1, 1]> ssd_batch_normalization_11_FusedBatchNormV3_nchw_weight_0_to_fp16 = const()[name = tensor<string, []>("ssd_batch_normalization_11_FusedBatchNormV3_nchw_weight_0_to_fp16"), val = tensor<fp16, [40, 72, 1, 1]>(BLOBFILE(path = tensor<string, []>("@model_path/weights/weight.bin"), offset = tensor<uint64, []>(33600)))];
            tensor<fp16, [40]> ssd_batch_normalization_11_FusedBatchNormV3_nchw_bias_0_to_fp16 = const()[name = tensor<string, []>("ssd_batch_normalization_11_FusedBatchNormV3_nchw_bias_0_to_fp16"), val = tensor<fp16, [40]>(BLOBFILE(path = tensor<string, []>("@model_path/weights/weight.bin"), offset = tensor<uint64, []>(39424)))];
            tensor<fp16, [?, 40, 40, 40]> ssd_batch_normalization_11_FusedBatchNormV3_nchw_cast = conv(bias = ssd_batch_normalization_11_FusedBatchNormV3_nchw_bias_0_to_fp16, dilations = ssd_conv2d_9_Conv2Dx_dilations_0, groups = ssd_conv2d_9_Conv2Dx_groups_0, pad = ssd_conv2d_9_Conv2Dx_pad_0, pad_type = ssd_conv2d_9_Conv2Dx_pad_type_0, strides = ssd_conv2d_9_Conv2Dx_strides_0, weight = ssd_batch_normalization_11_FusedBatchNormV3_nchw_weight_0_to_fp16, x = ssd_multiply_1_mul_cast);
            tensor<string, []> ssd_conv2d_10_Conv2Dx_pad_type_0 = const()[name = tensor<string, []>("ssd_conv2d_10_Conv2Dx_pad_type_0"), val = tensor<string, []>("same")];
            tensor<int32, [2]> ssd_conv2d_10_Conv2Dx_strides_0 = const()[name = tensor<string, []>("ssd_conv2d_10_Conv2Dx_strides_0"), val = tensor<int32, [2]>([1, 1])];
            tensor<int32, [2]> ssd_conv2d_10_Conv2Dx_dilations_0 = const()[name = tensor<string, []>("ssd_conv2d_10_Conv2Dx_dilations_0"), val = tensor<int32, [2]>([1, 1])];
            tensor<int32, []> ssd_conv2d_10_Conv2Dx_groups_0 = const()[name = tensor<string, []>("ssd_conv2d_10_Conv2Dx_groups_0"), val = tensor<int32, []>(1)];
            tensor<int32, [4]> ssd_conv2d_10_Conv2Dx_pad_0 = const()[name = tensor<string, []>("ssd_conv2d_10_Conv2Dx_pad_0"), val = tensor<int32, [4]>([0, 0, 0, 0])];
            tensor<fp16, [120, 40, 1, 1]> ssd_batch_normalization_12_FusedBatchNormV3_nchw_weight_0_to_fp16 = const()[name = tensor<string, []>("ssd_batch_normalization_12_FusedBatchNormV3_nchw_weight_0_to_fp16"), val = tensor<fp16, [120, 40, 1, 1]>(BLOBFILE(path = tensor<string, []>("@model_path/weights/weight.bin"), offset = tensor<uint64, []>(39616)))];
            tensor<fp16, [120]> ssd_batch_normalization_12_FusedBatchNormV3_nchw_bias_0_to_fp16 = const()[name = tensor<string, []>("ssd_batch_normalization_12_FusedBatchNormV3_nchw_bias_0_to_fp16"), val = tensor<fp16, [120]>(BLOBFILE(path = tensor<string, []>("@model_path/weights/weight.bin"), offset = tensor<uint64, []>(49280)))];
            tensor<fp16, [?, 120, 40, 40]> ssd_batch_normalization_12_FusedBatchNormV3_nchw_cast = conv(bias = ssd_batch_normalization_12_FusedBatchNormV3_nchw_bias_0_to_fp16, dilations = ssd_conv2d_10_Conv2Dx_dilations_0, groups = ssd_conv2d_10_Conv2Dx_groups_0, pad = ssd_conv2d_10_Conv2Dx_pad_0, pad_type = ssd_conv2d_10_Conv2Dx_pad_type_0, strides = ssd_conv2d_10_Conv2Dx_strides_0, weight = ssd_batch_normalization_12_FusedBatchNormV3_nchw_weight_0_to_fp16, x = ssd_batch_normalization_11_FusedBatchNormV3_nchw_cast);
            tensor<fp16, [?, 120, 40, 40]> ssd_re_lu_8_Relu_cast = relu(x = ssd_batch_normalization_12_FusedBatchNormV3_nchw_cast);
            tensor<string, []> ssd_depthwise_conv2d_4_depthwisex_pad_type_0 = const()[name = tensor<string, []>("ssd_depthwise_conv2d_4_depthwisex_pad_type_0"), val = tensor<string, []>("same")];
            tensor<int32, [2]> ssd_depthwise_conv2d_4_depthwisex_strides_0 = const()[name = tensor<string, []>("ssd_depthwise_conv2d_4_depthwisex_strides_0"), val = tensor<int32, [2]>([1, 1])];
            tensor<int32, [2]> ssd_depthwise_conv2d_4_depthwisex_dilations_0 = const()[name = tensor<string, []>("ssd_depthwise_conv2d_4_depthwisex_dilations_0"), val = tensor<int32, [2]>([1, 1])];
            tensor<int32, []> ssd_depthwise_conv2d_4_depthwisex_groups_0 = const()[name = tensor<string, []>("ssd_depthwise_conv2d_4_depthwisex_groups_0"), val = tensor<int32, []>(120)];
            tensor<int32, [4]> ssd_depthwise_conv2d_4_depthwisex_pad_0 = const()[name = tensor<string, []>("ssd_depthwise_conv2d_4_depthwisex_pad_0"), val = tensor<int32, [4]>([0, 0, 0, 0])];
            tensor<fp16, [120, 1, 5, 5]> ssd_batch_normalization_13_FusedBatchNormV3_nchw_weight_0_to_fp16 = const()[name = tensor<string, []>("ssd_batch_normalization_13_FusedBatchNormV3_nchw_weight_0_to_fp16"), val = tensor<fp16, [120, 1, 5, 5]>(BLOBFILE(path = tensor<string, []>("@model_path/weights/weight.bin"), offset = tensor<uint64, []>(49600)))];
            tensor<fp16, [120]> ssd_batch_normalization_13_FusedBatchNormV3_nchw_bias_0_to_fp16 = const()[name = tensor<string, []>("ssd_batch_normalization_13_FusedBatchNormV3_nchw_bias_0_to_fp16"), val = tensor<fp16, [120]>(BLOBFILE(path = tensor<string, []>("@model_path/weights/weight.bin"), offset = tensor<uint64, []>(55680)))];
            tensor<fp16, [?, 120, 40, 40]> ssd_batch_normalization_13_FusedBatchNormV3_nchw_cast = conv(bias = ssd_batch_normalization_13_FusedBatchNormV3_nchw_bias_0_to_fp16, dilations = ssd_depthwise_conv2d_4_depthwisex_dilations_0, groups = ssd_depthwise_conv2d_4_depthwisex_groups_0, pad = ssd_depthwise_conv2d_4_depthwisex_pad_0, pad_type = ssd_depthwise_conv2d_4_depthwisex_pad_type_0, strides = ssd_depthwise_conv2d_4_depthwisex_strides_0, weight = ssd_batch_normalization_13_FusedBatchNormV3_nchw_weight_0_to_fp16, x = ssd_re_lu_8_Relu_cast);
            tensor<fp16, [?, 120, 40, 40]> ssd_re_lu_9_Relu_cast = relu(x = ssd_batch_normalization_13_FusedBatchNormV3_nchw_cast);
            tensor<int32, [2]> ssd_global_average_pooling2d_1_Mean_axes_0 = const()[name = tensor<string, []>("ssd_global_average_pooling2d_1_Mean_axes_0"), val = tensor<int32, [2]>([1, 2])];
            tensor<bool, []> ssd_global_average_pooling2d_1_Mean_keep_dims_0 = const()[name = tensor<string, []>("ssd_global_average_pooling2d_1_Mean_keep_dims_0"), val = tensor<bool, []>(false)];
            tensor<int32, [4]> transpose_276_perm_0 = const()[name = tensor<string, []>("transpose_276_perm_0"), val = tensor<int32, [4]>([0, 2, 3, 1])];
            tensor<fp16, [?, 40, 40, 120]> transpose_308 = transpose(perm = transpose_276_perm_0, x = ssd_re_lu_9_Relu_cast);
            tensor<fp16, [?, 120]> ssd_global_average_pooling2d_1_Mean_cast = reduce_mean(axes = ssd_global_average_pooling2d_1_Mean_axes_0, keep_dims = ssd_global_average_pooling2d_1_Mean_keep_dims_0, x = transpose_308);
            tensor<int32, [4]> ssd_reshape_1_Reshape_shapex = const()[name = tensor<string, []>("ssd_reshape_1_Reshape_shapex"), val = tensor<int32, [4]>([-1, 1, 1, 120])];
            tensor<fp16, [?, 1, 1, 120]> ssd_reshape_1_Reshape_cast = reshape(shape = ssd_reshape_1_Reshape_shapex, x = ssd_global_average_pooling2d_1_Mean_cast);
            tensor<int32, [4]> transpose_47_perm_0 = const()[name = tensor<string, []>("transpose_47_perm_0"), val = tensor<int32, [4]>([0, 3, 1, 2])];
            tensor<string, []> ssd_sequential_3_conv2d_11_Conv2Dx_pad_type_0 = const()[name = tensor<string, []>("ssd_sequential_3_conv2d_11_Conv2Dx_pad_type_0"), val = tensor<string, []>("valid")];
            tensor<int32, [2]> ssd_sequential_3_conv2d_11_Conv2Dx_strides_0 = const()[name = tensor<string, []>("ssd_sequential_3_conv2d_11_Conv2Dx_strides_0"), val = tensor<int32, [2]>([1, 1])];
            tensor<int32, [2]> ssd_sequential_3_conv2d_11_Conv2Dx_dilations_0 = const()[name = tensor<string, []>("ssd_sequential_3_conv2d_11_Conv2Dx_dilations_0"), val = tensor<int32, [2]>([1, 1])];
            tensor<int32, []> ssd_sequential_3_conv2d_11_Conv2Dx_groups_0 = const()[name = tensor<string, []>("ssd_sequential_3_conv2d_11_Conv2Dx_groups_0"), val = tensor<int32, []>(1)];
            tensor<int32, [4]> ssd_sequential_3_conv2d_11_Conv2Dx_pad_0 = const()[name = tensor<string, []>("ssd_sequential_3_conv2d_11_Conv2Dx_pad_0"), val = tensor<int32, [4]>([0, 0, 0, 0])];
            tensor<fp16, [32, 120, 1, 1]> transpose_46_to_fp16 = const()[name = tensor<string, []>("transpose_46_to_fp16"), val = tensor<fp16, [32, 120, 1, 1]>(BLOBFILE(path = tensor<string, []>("@model_path/weights/weight.bin"), offset = tensor<uint64, []>(56000)))];
            tensor<fp16, [32]> const_19_to_fp16 = const()[name = tensor<string, []>("const_19_to_fp16"), val = tensor<fp16, [32]>(BLOBFILE(path = tensor<string, []>("@model_path/weights/weight.bin"), offset = tensor<uint64, []>(63744)))];
            tensor<fp16, [?, 120, 1, 1]> transpose_307 = transpose(perm = transpose_47_perm_0, x = ssd_reshape_1_Reshape_cast);
            tensor<fp16, [?, 32, 1, 1]> ssd_sequential_3_conv2d_11_BiasAdd_cast = conv(bias = const_19_to_fp16, dilations = ssd_sequential_3_conv2d_11_Conv2Dx_dilations_0, groups = ssd_sequential_3_conv2d_11_Conv2Dx_groups_0, pad = ssd_sequential_3_conv2d_11_Conv2Dx_pad_0, pad_type = ssd_sequential_3_conv2d_11_Conv2Dx_pad_type_0, strides = ssd_sequential_3_conv2d_11_Conv2Dx_strides_0, weight = transpose_46_to_fp16, x = transpose_307);
            tensor<fp16, [?, 32, 1, 1]> ssd_sequential_3_re_lu_10_Relu_cast = relu(x = ssd_sequential_3_conv2d_11_BiasAdd_cast);
            tensor<string, []> ssd_sequential_3_conv2d_12_Conv2Dx_pad_type_0 = const()[name = tensor<string, []>("ssd_sequential_3_conv2d_12_Conv2Dx_pad_type_0"), val = tensor<string, []>("valid")];
            tensor<int32, [2]> ssd_sequential_3_conv2d_12_Conv2Dx_strides_0 = const()[name = tensor<string, []>("ssd_sequential_3_conv2d_12_Conv2Dx_strides_0"), val = tensor<int32, [2]>([1, 1])];
            tensor<int32, [2]> ssd_sequential_3_conv2d_12_Conv2Dx_dilations_0 = const()[name = tensor<string, []>("ssd_sequential_3_conv2d_12_Conv2Dx_dilations_0"), val = tensor<int32, [2]>([1, 1])];
            tensor<int32, []> ssd_sequential_3_conv2d_12_Conv2Dx_groups_0 = const()[name = tensor<string, []>("ssd_sequential_3_conv2d_12_Conv2Dx_groups_0"), val = tensor<int32, []>(1)];
            tensor<int32, [4]> ssd_sequential_3_conv2d_12_Conv2Dx_pad_0 = const()[name = tensor<string, []>("ssd_sequential_3_conv2d_12_Conv2Dx_pad_0"), val = tensor<int32, [4]>([0, 0, 0, 0])];
            tensor<fp16, [120, 32, 1, 1]> transpose_48_to_fp16 = const()[name = tensor<string, []>("transpose_48_to_fp16"), val = tensor<fp16, [120, 32, 1, 1]>(BLOBFILE(path = tensor<string, []>("@model_path/weights/weight.bin"), offset = tensor<uint64, []>(63872)))];
            tensor<fp16, [120]> const_21_to_fp16 = const()[name = tensor<string, []>("const_21_to_fp16"), val = tensor<fp16, [120]>(BLOBFILE(path = tensor<string, []>("@model_path/weights/weight.bin"), offset = tensor<uint64, []>(71616)))];
            tensor<fp16, [?, 120, 1, 1]> ssd_rescaling_4_add_cast = conv(bias = const_21_to_fp16, dilations = ssd_sequential_3_conv2d_12_Conv2Dx_dilations_0, groups = ssd_sequential_3_conv2d_12_Conv2Dx_groups_0, pad = ssd_sequential_3_conv2d_12_Conv2Dx_pad_0, pad_type = ssd_sequential_3_conv2d_12_Conv2Dx_pad_type_0, strides = ssd_sequential_3_conv2d_12_Conv2Dx_strides_0, weight = transpose_48_to_fp16, x = ssd_sequential_3_re_lu_10_Relu_cast);
            tensor<fp16, [?, 120, 1, 1]> ssd_re_lu_45_Relu6_cast = relu6(x = ssd_rescaling_4_add_cast);
            tensor<fp16, []> ssd_rescaling_5_Cast_x_to_fp16 = const()[name = tensor<string, []>("ssd_rescaling_5_Cast_x_to_fp16"), val = tensor<fp16, []>(0x1.554p-3)];
            tensor<fp16, [?, 120, 1, 1]> ssd_rescaling_5_mul_cast = mul(x = ssd_re_lu_45_Relu6_cast, y = ssd_rescaling_5_Cast_x_to_fp16);
            tensor<fp16, [?, 120, 40, 40]> ssd_multiply_2_mul_cast = mul(x = ssd_re_lu_9_Relu_cast, y = ssd_rescaling_5_mul_cast);
            tensor<string, []> ssd_conv2d_13_Conv2Dx_pad_type_0 = const()[name = tensor<string, []>("ssd_conv2d_13_Conv2Dx_pad_type_0"), val = tensor<string, []>("same")];
            tensor<int32, [2]> ssd_conv2d_13_Conv2Dx_strides_0 = const()[name = tensor<string, []>("ssd_conv2d_13_Conv2Dx_strides_0"), val = tensor<int32, [2]>([1, 1])];
            tensor<int32, [2]> ssd_conv2d_13_Conv2Dx_dilations_0 = const()[name = tensor<string, []>("ssd_conv2d_13_Conv2Dx_dilations_0"), val = tensor<int32, [2]>([1, 1])];
            tensor<int32, []> ssd_conv2d_13_Conv2Dx_groups_0 = const()[name = tensor<string, []>("ssd_conv2d_13_Conv2Dx_groups_0"), val = tensor<int32, []>(1)];
            tensor<int32, [4]> ssd_conv2d_13_Conv2Dx_pad_0 = const()[name = tensor<string, []>("ssd_conv2d_13_Conv2Dx_pad_0"), val = tensor<int32, [4]>([0, 0, 0, 0])];
            tensor<fp16, [40, 120, 1, 1]> ssd_batch_normalization_14_FusedBatchNormV3_nchw_weight_0_to_fp16 = const()[name = tensor<string, []>("ssd_batch_normalization_14_FusedBatchNormV3_nchw_weight_0_to_fp16"), val = tensor<fp16, [40, 120, 1, 1]>(BLOBFILE(path = tensor<string, []>("@model_path/weights/weight.bin"), offset = tensor<uint64, []>(71936)))];
            tensor<fp16, [40]> ssd_batch_normalization_14_FusedBatchNormV3_nchw_bias_0_to_fp16 = const()[name = tensor<string, []>("ssd_batch_normalization_14_FusedBatchNormV3_nchw_bias_0_to_fp16"), val = tensor<fp16, [40]>(BLOBFILE(path = tensor<string, []>("@model_path/weights/weight.bin"), offset = tensor<uint64, []>(81600)))];
            tensor<fp16, [?, 40, 40, 40]> ssd_batch_normalization_14_FusedBatchNormV3_nchw_cast = conv(bias = ssd_batch_normalization_14_FusedBatchNormV3_nchw_bias_0_to_fp16, dilations = ssd_conv2d_13_Conv2Dx_dilations_0, groups = ssd_conv2d_13_Conv2Dx_groups_0, pad = ssd_conv2d_13_Conv2Dx_pad_0, pad_type = ssd_conv2d_13_Conv2Dx_pad_type_0, strides = ssd_conv2d_13_Conv2Dx_strides_0, weight = ssd_batch_normalization_14_FusedBatchNormV3_nchw_weight_0_to_fp16, x = ssd_multiply_2_mul_cast);
            tensor<fp16, [?, 40, 40, 40]> ssd_add_2_add_cast = add(x = ssd_batch_normalization_14_FusedBatchNormV3_nchw_cast, y = ssd_batch_normalization_11_FusedBatchNormV3_nchw_cast);
            tensor<string, []> ssd_conv2d_14_Conv2Dx_pad_type_0 = const()[name = tensor<string, []>("ssd_conv2d_14_Conv2Dx_pad_type_0"), val = tensor<string, []>("same")];
            tensor<int32, [2]> ssd_conv2d_14_Conv2Dx_strides_0 = const()[name = tensor<string, []>("ssd_conv2d_14_Conv2Dx_strides_0"), val = tensor<int32, [2]>([1, 1])];
            tensor<int32, [2]> ssd_conv2d_14_Conv2Dx_dilations_0 = const()[name = tensor<string, []>("ssd_conv2d_14_Conv2Dx_dilations_0"), val = tensor<int32, [2]>([1, 1])];
            tensor<int32, []> ssd_conv2d_14_Conv2Dx_groups_0 = const()[name = tensor<string, []>("ssd_conv2d_14_Conv2Dx_groups_0"), val = tensor<int32, []>(1)];
            tensor<int32, [4]> ssd_conv2d_14_Conv2Dx_pad_0 = const()[name = tensor<string, []>("ssd_conv2d_14_Conv2Dx_pad_0"), val = tensor<int32, [4]>([0, 0, 0, 0])];
            tensor<fp16, [120, 40, 1, 1]> ssd_batch_normalization_15_FusedBatchNormV3_nchw_weight_0_to_fp16 = const()[name = tensor<string, []>("ssd_batch_normalization_15_FusedBatchNormV3_nchw_weight_0_to_fp16"), val = tensor<fp16, [120, 40, 1, 1]>(BLOBFILE(path = tensor<string, []>("@model_path/weights/weight.bin"), offset = tensor<uint64, []>(81792)))];
            tensor<fp16, [120]> ssd_batch_normalization_15_FusedBatchNormV3_nchw_bias_0_to_fp16 = const()[name = tensor<string, []>("ssd_batch_normalization_15_FusedBatchNormV3_nchw_bias_0_to_fp16"), val = tensor<fp16, [120]>(BLOBFILE(path = tensor<string, []>("@model_path/weights/weight.bin"), offset = tensor<uint64, []>(91456)))];
            tensor<fp16, [?, 120, 40, 40]> ssd_batch_normalization_15_FusedBatchNormV3_nchw_cast = conv(bias = ssd_batch_normalization_15_FusedBatchNormV3_nchw_bias_0_to_fp16, dilations = ssd_conv2d_14_Conv2Dx_dilations_0, groups = ssd_conv2d_14_Conv2Dx_groups_0, pad = ssd_conv2d_14_Conv2Dx_pad_0, pad_type = ssd_conv2d_14_Conv2Dx_pad_type_0, strides = ssd_conv2d_14_Conv2Dx_strides_0, weight = ssd_batch_normalization_15_FusedBatchNormV3_nchw_weight_0_to_fp16, x = ssd_add_2_add_cast);
            tensor<fp16, [?, 120, 40, 40]> ssd_re_lu_11_Relu_cast = relu(x = ssd_batch_normalization_15_FusedBatchNormV3_nchw_cast);
            tensor<string, []> ssd_depthwise_conv2d_5_depthwisex_pad_type_0 = const()[name = tensor<string, []>("ssd_depthwise_conv2d_5_depthwisex_pad_type_0"), val = tensor<string, []>("same")];
            tensor<int32, [2]> ssd_depthwise_conv2d_5_depthwisex_strides_0 = const()[name = tensor<string, []>("ssd_depthwise_conv2d_5_depthwisex_strides_0"), val = tensor<int32, [2]>([1, 1])];
            tensor<int32, [2]> ssd_depthwise_conv2d_5_depthwisex_dilations_0 = const()[name = tensor<string, []>("ssd_depthwise_conv2d_5_depthwisex_dilations_0"), val = tensor<int32, [2]>([1, 1])];
            tensor<int32, []> ssd_depthwise_conv2d_5_depthwisex_groups_0 = const()[name = tensor<string, []>("ssd_depthwise_conv2d_5_depthwisex_groups_0"), val = tensor<int32, []>(120)];
            tensor<int32, [4]> ssd_depthwise_conv2d_5_depthwisex_pad_0 = const()[name = tensor<string, []>("ssd_depthwise_conv2d_5_depthwisex_pad_0"), val = tensor<int32, [4]>([0, 0, 0, 0])];
            tensor<fp16, [120, 1, 5, 5]> ssd_batch_normalization_16_FusedBatchNormV3_nchw_weight_0_to_fp16 = const()[name = tensor<string, []>("ssd_batch_normalization_16_FusedBatchNormV3_nchw_weight_0_to_fp16"), val = tensor<fp16, [120, 1, 5, 5]>(BLOBFILE(path = tensor<string, []>("@model_path/weights/weight.bin"), offset = tensor<uint64, []>(91776)))];
            tensor<fp16, [120]> ssd_batch_normalization_16_FusedBatchNormV3_nchw_bias_0_to_fp16 = const()[name = tensor<string, []>("ssd_batch_normalization_16_FusedBatchNormV3_nchw_bias_0_to_fp16"), val = tensor<fp16, [120]>(BLOBFILE(path = tensor<string, []>("@model_path/weights/weight.bin"), offset = tensor<uint64, []>(97856)))];
            tensor<fp16, [?, 120, 40, 40]> ssd_batch_normalization_16_FusedBatchNormV3_nchw_cast = conv(bias = ssd_batch_normalization_16_FusedBatchNormV3_nchw_bias_0_to_fp16, dilations = ssd_depthwise_conv2d_5_depthwisex_dilations_0, groups = ssd_depthwise_conv2d_5_depthwisex_groups_0, pad = ssd_depthwise_conv2d_5_depthwisex_pad_0, pad_type = ssd_depthwise_conv2d_5_depthwisex_pad_type_0, strides = ssd_depthwise_conv2d_5_depthwisex_strides_0, weight = ssd_batch_normalization_16_FusedBatchNormV3_nchw_weight_0_to_fp16, x = ssd_re_lu_11_Relu_cast);
            tensor<fp16, [?, 120, 40, 40]> ssd_re_lu_12_Relu_cast = relu(x = ssd_batch_normalization_16_FusedBatchNormV3_nchw_cast);
            tensor<int32, [2]> ssd_global_average_pooling2d_2_Mean_axes_0 = const()[name = tensor<string, []>("ssd_global_average_pooling2d_2_Mean_axes_0"), val = tensor<int32, [2]>([1, 2])];
            tensor<bool, []> ssd_global_average_pooling2d_2_Mean_keep_dims_0 = const()[name = tensor<string, []>("ssd_global_average_pooling2d_2_Mean_keep_dims_0"), val = tensor<bool, []>(false)];
            tensor<int32, [4]> transpose_277_perm_0 = const()[name = tensor<string, []>("transpose_277_perm_0"), val = tensor<int32, [4]>([0, 2, 3, 1])];
            tensor<fp16, [?, 40, 40, 120]> transpose_306 = transpose(perm = transpose_277_perm_0, x = ssd_re_lu_12_Relu_cast);
            tensor<fp16, [?, 120]> ssd_global_average_pooling2d_2_Mean_cast = reduce_mean(axes = ssd_global_average_pooling2d_2_Mean_axes_0, keep_dims = ssd_global_average_pooling2d_2_Mean_keep_dims_0, x = transpose_306);
            tensor<int32, [4]> ssd_reshape_2_Reshape_shapex = const()[name = tensor<string, []>("ssd_reshape_2_Reshape_shapex"), val = tensor<int32, [4]>([-1, 1, 1, 120])];
            tensor<fp16, [?, 1, 1, 120]> ssd_reshape_2_Reshape_cast = reshape(shape = ssd_reshape_2_Reshape_shapex, x = ssd_global_average_pooling2d_2_Mean_cast);
            tensor<int32, [4]> transpose_60_perm_0 = const()[name = tensor<string, []>("transpose_60_perm_0"), val = tensor<int32, [4]>([0, 3, 1, 2])];
            tensor<string, []> ssd_sequential_4_conv2d_15_Conv2Dx_pad_type_0 = const()[name = tensor<string, []>("ssd_sequential_4_conv2d_15_Conv2Dx_pad_type_0"), val = tensor<string, []>("valid")];
            tensor<int32, [2]> ssd_sequential_4_conv2d_15_Conv2Dx_strides_0 = const()[name = tensor<string, []>("ssd_sequential_4_conv2d_15_Conv2Dx_strides_0"), val = tensor<int32, [2]>([1, 1])];
            tensor<int32, [2]> ssd_sequential_4_conv2d_15_Conv2Dx_dilations_0 = const()[name = tensor<string, []>("ssd_sequential_4_conv2d_15_Conv2Dx_dilations_0"), val = tensor<int32, [2]>([1, 1])];
            tensor<int32, []> ssd_sequential_4_conv2d_15_Conv2Dx_groups_0 = const()[name = tensor<string, []>("ssd_sequential_4_conv2d_15_Conv2Dx_groups_0"), val = tensor<int32, []>(1)];
            tensor<int32, [4]> ssd_sequential_4_conv2d_15_Conv2Dx_pad_0 = const()[name = tensor<string, []>("ssd_sequential_4_conv2d_15_Conv2Dx_pad_0"), val = tensor<int32, [4]>([0, 0, 0, 0])];
            tensor<fp16, [32, 120, 1, 1]> transpose_59_to_fp16 = const()[name = tensor<string, []>("transpose_59_to_fp16"), val = tensor<fp16, [32, 120, 1, 1]>(BLOBFILE(path = tensor<string, []>("@model_path/weights/weight.bin"), offset = tensor<uint64, []>(98176)))];
            tensor<fp16, [32]> const_22_to_fp16 = const()[name = tensor<string, []>("const_22_to_fp16"), val = tensor<fp16, [32]>(BLOBFILE(path = tensor<string, []>("@model_path/weights/weight.bin"), offset = tensor<uint64, []>(105920)))];
            tensor<fp16, [?, 120, 1, 1]> transpose_305 = transpose(perm = transpose_60_perm_0, x = ssd_reshape_2_Reshape_cast);
            tensor<fp16, [?, 32, 1, 1]> ssd_sequential_4_conv2d_15_BiasAdd_cast = conv(bias = const_22_to_fp16, dilations = ssd_sequential_4_conv2d_15_Conv2Dx_dilations_0, groups = ssd_sequential_4_conv2d_15_Conv2Dx_groups_0, pad = ssd_sequential_4_conv2d_15_Conv2Dx_pad_0, pad_type = ssd_sequential_4_conv2d_15_Conv2Dx_pad_type_0, strides = ssd_sequential_4_conv2d_15_Conv2Dx_strides_0, weight = transpose_59_to_fp16, x = transpose_305);
            tensor<fp16, [?, 32, 1, 1]> ssd_sequential_4_re_lu_13_Relu_cast = relu(x = ssd_sequential_4_conv2d_15_BiasAdd_cast);
            tensor<string, []> ssd_sequential_4_conv2d_16_Conv2Dx_pad_type_0 = const()[name = tensor<string, []>("ssd_sequential_4_conv2d_16_Conv2Dx_pad_type_0"), val = tensor<string, []>("valid")];
            tensor<int32, [2]> ssd_sequential_4_conv2d_16_Conv2Dx_strides_0 = const()[name = tensor<string, []>("ssd_sequential_4_conv2d_16_Conv2Dx_strides_0"), val = tensor<int32, [2]>([1, 1])];
            tensor<int32, [2]> ssd_sequential_4_conv2d_16_Conv2Dx_dilations_0 = const()[name = tensor<string, []>("ssd_sequential_4_conv2d_16_Conv2Dx_dilations_0"), val = tensor<int32, [2]>([1, 1])];
            tensor<int32, []> ssd_sequential_4_conv2d_16_Conv2Dx_groups_0 = const()[name = tensor<string, []>("ssd_sequential_4_conv2d_16_Conv2Dx_groups_0"), val = tensor<int32, []>(1)];
            tensor<int32, [4]> ssd_sequential_4_conv2d_16_Conv2Dx_pad_0 = const()[name = tensor<string, []>("ssd_sequential_4_conv2d_16_Conv2Dx_pad_0"), val = tensor<int32, [4]>([0, 0, 0, 0])];
            tensor<fp16, [120, 32, 1, 1]> transpose_61_to_fp16 = const()[name = tensor<string, []>("transpose_61_to_fp16"), val = tensor<fp16, [120, 32, 1, 1]>(BLOBFILE(path = tensor<string, []>("@model_path/weights/weight.bin"), offset = tensor<uint64, []>(106048)))];
            tensor<fp16, [120]> const_24_to_fp16 = const()[name = tensor<string, []>("const_24_to_fp16"), val = tensor<fp16, [120]>(BLOBFILE(path = tensor<string, []>("@model_path/weights/weight.bin"), offset = tensor<uint64, []>(113792)))];
            tensor<fp16, [?, 120, 1, 1]> ssd_rescaling_6_add_cast = conv(bias = const_24_to_fp16, dilations = ssd_sequential_4_conv2d_16_Conv2Dx_dilations_0, groups = ssd_sequential_4_conv2d_16_Conv2Dx_groups_0, pad = ssd_sequential_4_conv2d_16_Conv2Dx_pad_0, pad_type = ssd_sequential_4_conv2d_16_Conv2Dx_pad_type_0, strides = ssd_sequential_4_conv2d_16_Conv2Dx_strides_0, weight = transpose_61_to_fp16, x = ssd_sequential_4_re_lu_13_Relu_cast);
            tensor<fp16, [?, 120, 1, 1]> ssd_re_lu_46_Relu6_cast = relu6(x = ssd_rescaling_6_add_cast);
            tensor<fp16, []> ssd_rescaling_7_Cast_x_to_fp16 = const()[name = tensor<string, []>("ssd_rescaling_7_Cast_x_to_fp16"), val = tensor<fp16, []>(0x1.554p-3)];
            tensor<fp16, [?, 120, 1, 1]> ssd_rescaling_7_mul_cast = mul(x = ssd_re_lu_46_Relu6_cast, y = ssd_rescaling_7_Cast_x_to_fp16);
            tensor<fp16, [?, 120, 40, 40]> ssd_multiply_3_mul_cast = mul(x = ssd_re_lu_12_Relu_cast, y = ssd_rescaling_7_mul_cast);
            tensor<string, []> ssd_conv2d_17_Conv2Dx_pad_type_0 = const()[name = tensor<string, []>("ssd_conv2d_17_Conv2Dx_pad_type_0"), val = tensor<string, []>("same")];
            tensor<int32, [2]> ssd_conv2d_17_Conv2Dx_strides_0 = const()[name = tensor<string, []>("ssd_conv2d_17_Conv2Dx_strides_0"), val = tensor<int32, [2]>([1, 1])];
            tensor<int32, [2]> ssd_conv2d_17_Conv2Dx_dilations_0 = const()[name = tensor<string, []>("ssd_conv2d_17_Conv2Dx_dilations_0"), val = tensor<int32, [2]>([1, 1])];
            tensor<int32, []> ssd_conv2d_17_Conv2Dx_groups_0 = const()[name = tensor<string, []>("ssd_conv2d_17_Conv2Dx_groups_0"), val = tensor<int32, []>(1)];
            tensor<int32, [4]> ssd_conv2d_17_Conv2Dx_pad_0 = const()[name = tensor<string, []>("ssd_conv2d_17_Conv2Dx_pad_0"), val = tensor<int32, [4]>([0, 0, 0, 0])];
            tensor<fp16, [40, 120, 1, 1]> ssd_batch_normalization_17_FusedBatchNormV3_nchw_weight_0_to_fp16 = const()[name = tensor<string, []>("ssd_batch_normalization_17_FusedBatchNormV3_nchw_weight_0_to_fp16"), val = tensor<fp16, [40, 120, 1, 1]>(BLOBFILE(path = tensor<string, []>("@model_path/weights/weight.bin"), offset = tensor<uint64, []>(114112)))];
            tensor<fp16, [40]> ssd_batch_normalization_17_FusedBatchNormV3_nchw_bias_0_to_fp16 = const()[name = tensor<string, []>("ssd_batch_normalization_17_FusedBatchNormV3_nchw_bias_0_to_fp16"), val = tensor<fp16, [40]>(BLOBFILE(path = tensor<string, []>("@model_path/weights/weight.bin"), offset = tensor<uint64, []>(123776)))];
            tensor<fp16, [?, 40, 40, 40]> ssd_batch_normalization_17_FusedBatchNormV3_nchw_cast = conv(bias = ssd_batch_normalization_17_FusedBatchNormV3_nchw_bias_0_to_fp16, dilations = ssd_conv2d_17_Conv2Dx_dilations_0, groups = ssd_conv2d_17_Conv2Dx_groups_0, pad = ssd_conv2d_17_Conv2Dx_pad_0, pad_type = ssd_conv2d_17_Conv2Dx_pad_type_0, strides = ssd_conv2d_17_Conv2Dx_strides_0, weight = ssd_batch_normalization_17_FusedBatchNormV3_nchw_weight_0_to_fp16, x = ssd_multiply_3_mul_cast);
            tensor<fp16, [?, 40, 40, 40]> ssd_add_3_add_cast = add(x = ssd_batch_normalization_17_FusedBatchNormV3_nchw_cast, y = ssd_add_2_add_cast);
            tensor<string, []> ssd_conv2d_18_Conv2Dx_pad_type_0 = const()[name = tensor<string, []>("ssd_conv2d_18_Conv2Dx_pad_type_0"), val = tensor<string, []>("same")];
            tensor<int32, [2]> ssd_conv2d_18_Conv2Dx_strides_0 = const()[name = tensor<string, []>("ssd_conv2d_18_Conv2Dx_strides_0"), val = tensor<int32, [2]>([1, 1])];
            tensor<int32, [2]> ssd_conv2d_18_Conv2Dx_dilations_0 = const()[name = tensor<string, []>("ssd_conv2d_18_Conv2Dx_dilations_0"), val = tensor<int32, [2]>([1, 1])];
            tensor<int32, []> ssd_conv2d_18_Conv2Dx_groups_0 = const()[name = tensor<string, []>("ssd_conv2d_18_Conv2Dx_groups_0"), val = tensor<int32, []>(1)];
            tensor<int32, [4]> ssd_conv2d_18_Conv2Dx_pad_0 = const()[name = tensor<string, []>("ssd_conv2d_18_Conv2Dx_pad_0"), val = tensor<int32, [4]>([0, 0, 0, 0])];
            tensor<fp16, [240, 40, 1, 1]> ssd_batch_normalization_18_FusedBatchNormV3_nchw_weight_0_to_fp16 = const()[name = tensor<string, []>("ssd_batch_normalization_18_FusedBatchNormV3_nchw_weight_0_to_fp16"), val = tensor<fp16, [240, 40, 1, 1]>(BLOBFILE(path = tensor<string, []>("@model_path/weights/weight.bin"), offset = tensor<uint64, []>(123968)))];
            tensor<fp16, [240]> ssd_batch_normalization_18_FusedBatchNormV3_nchw_bias_0_to_fp16 = const()[name = tensor<string, []>("ssd_batch_normalization_18_FusedBatchNormV3_nchw_bias_0_to_fp16"), val = tensor<fp16, [240]>(BLOBFILE(path = tensor<string, []>("@model_path/weights/weight.bin"), offset = tensor<uint64, []>(143232)))];
            tensor<fp16, [?, 240, 40, 40]> ssd_batch_normalization_18_FusedBatchNormV3_nchw_cast = conv(bias = ssd_batch_normalization_18_FusedBatchNormV3_nchw_bias_0_to_fp16, dilations = ssd_conv2d_18_Conv2Dx_dilations_0, groups = ssd_conv2d_18_Conv2Dx_groups_0, pad = ssd_conv2d_18_Conv2Dx_pad_0, pad_type = ssd_conv2d_18_Conv2Dx_pad_type_0, strides = ssd_conv2d_18_Conv2Dx_strides_0, weight = ssd_batch_normalization_18_FusedBatchNormV3_nchw_weight_0_to_fp16, x = ssd_add_3_add_cast);
            tensor<fp16, []> ssd_rescaling_8_Cast_1_x_to_fp16 = const()[name = tensor<string, []>("ssd_rescaling_8_Cast_1_x_to_fp16"), val = tensor<fp16, []>(0x1.8p+1)];
            tensor<fp16, [?, 240, 40, 40]> ssd_rescaling_8_add_cast = add(x = ssd_batch_normalization_18_FusedBatchNormV3_nchw_cast, y = ssd_rescaling_8_Cast_1_x_to_fp16);
            tensor<fp16, [?, 240, 40, 40]> ssd_re_lu_47_Relu6_cast = relu6(x = ssd_rescaling_8_add_cast);
            tensor<fp16, []> ssd_rescaling_9_Cast_x_to_fp16 = const()[name = tensor<string, []>("ssd_rescaling_9_Cast_x_to_fp16"), val = tensor<fp16, []>(0x1.554p-3)];
            tensor<fp16, [?, 240, 40, 40]> ssd_rescaling_9_mul_cast = mul(x = ssd_re_lu_47_Relu6_cast, y = ssd_rescaling_9_Cast_x_to_fp16);
            tensor<fp16, [?, 240, 40, 40]> ssd_multiply_4_mul_cast = mul(x = ssd_batch_normalization_18_FusedBatchNormV3_nchw_cast, y = ssd_rescaling_9_mul_cast);
            tensor<string, []> ssd_zero_padding2d_3_Pad_mode_0 = const()[name = tensor<string, []>("ssd_zero_padding2d_3_Pad_mode_0"), val = tensor<string, []>("constant")];
            tensor<int32, [8]> pad_3_pad_0 = const()[name = tensor<string, []>("pad_3_pad_0"), val = tensor<int32, [8]>([0, 0, 0, 0, 1, 1, 1, 1])];
            tensor<fp16, []> ssd_zero_padding2d_3_Pad_constant_val_0_to_fp16 = const()[name = tensor<string, []>("ssd_zero_padding2d_3_Pad_constant_val_0_to_fp16"), val = tensor<fp16, []>(0x0p+0)];
            tensor<fp16, [?, 240, 42, 42]> pad_3_cast = pad(constant_val = ssd_zero_padding2d_3_Pad_constant_val_0_to_fp16, mode = ssd_zero_padding2d_3_Pad_mode_0, pad = pad_3_pad_0, x = ssd_multiply_4_mul_cast);
            tensor<string, []> ssd_depthwise_conv2d_6_depthwisex_pad_type_0 = const()[name = tensor<string, []>("ssd_depthwise_conv2d_6_depthwisex_pad_type_0"), val = tensor<string, []>("valid")];
            tensor<int32, [2]> ssd_depthwise_conv2d_6_depthwisex_strides_0 = const()[name = tensor<string, []>("ssd_depthwise_conv2d_6_depthwisex_strides_0"), val = tensor<int32, [2]>([2, 2])];
            tensor<int32, [2]> ssd_depthwise_conv2d_6_depthwisex_dilations_0 = const()[name = tensor<string, []>("ssd_depthwise_conv2d_6_depthwisex_dilations_0"), val = tensor<int32, [2]>([1, 1])];
            tensor<int32, []> ssd_depthwise_conv2d_6_depthwisex_groups_0 = const()[name = tensor<string, []>("ssd_depthwise_conv2d_6_depthwisex_groups_0"), val = tensor<int32, []>(240)];
            tensor<int32, [4]> ssd_depthwise_conv2d_6_depthwisex_pad_0 = const()[name = tensor<string, []>("ssd_depthwise_conv2d_6_depthwisex_pad_0"), val = tensor<int32, [4]>([0, 0, 0, 0])];
            tensor<fp16, [240, 1, 3, 3]> ssd_batch_normalization_19_FusedBatchNormV3_nchw_weight_0_to_fp16 = const()[name = tensor<string, []>("ssd_batch_normalization_19_FusedBatchNormV3_nchw_weight_0_to_fp16"), val = tensor<fp16, [240, 1, 3, 3]>(BLOBFILE(path = tensor<string, []>("@model_path/weights/weight.bin"), offset = tensor<uint64, []>(143808)))];
            tensor<fp16, [240]> ssd_batch_normalization_19_FusedBatchNormV3_nchw_bias_0_to_fp16 = const()[name = tensor<string, []>("ssd_batch_normalization_19_FusedBatchNormV3_nchw_bias_0_to_fp16"), val = tensor<fp16, [240]>(BLOBFILE(path = tensor<string, []>("@model_path/weights/weight.bin"), offset = tensor<uint64, []>(148224)))];
            tensor<fp16, [?, 240, 20, 20]> ssd_batch_normalization_19_FusedBatchNormV3_nchw_cast = conv(bias = ssd_batch_normalization_19_FusedBatchNormV3_nchw_bias_0_to_fp16, dilations = ssd_depthwise_conv2d_6_depthwisex_dilations_0, groups = ssd_depthwise_conv2d_6_depthwisex_groups_0, pad = ssd_depthwise_conv2d_6_depthwisex_pad_0, pad_type = ssd_depthwise_conv2d_6_depthwisex_pad_type_0, strides = ssd_depthwise_conv2d_6_depthwisex_strides_0, weight = ssd_batch_normalization_19_FusedBatchNormV3_nchw_weight_0_to_fp16, x = pad_3_cast);
            tensor<fp16, []> ssd_rescaling_10_Cast_1_x_to_fp16 = const()[name = tensor<string, []>("ssd_rescaling_10_Cast_1_x_to_fp16"), val = tensor<fp16, []>(0x1.8p+1)];
            tensor<fp16, [?, 240, 20, 20]> ssd_rescaling_10_add_cast = add(x = ssd_batch_normalization_19_FusedBatchNormV3_nchw_cast, y = ssd_rescaling_10_Cast_1_x_to_fp16);
            tensor<fp16, [?, 240, 20, 20]> ssd_re_lu_48_Relu6_cast = relu6(x = ssd_rescaling_10_add_cast);
            tensor<fp16, []> ssd_rescaling_11_Cast_x_to_fp16 = const()[name = tensor<string, []>("ssd_rescaling_11_Cast_x_to_fp16"), val = tensor<fp16, []>(0x1.554p-3)];
            tensor<fp16, [?, 240, 20, 20]> ssd_rescaling_11_mul_cast = mul(x = ssd_re_lu_48_Relu6_cast, y = ssd_rescaling_11_Cast_x_to_fp16);
            tensor<fp16, [?, 240, 20, 20]> ssd_multiply_5_mul_cast = mul(x = ssd_batch_normalization_19_FusedBatchNormV3_nchw_cast, y = ssd_rescaling_11_mul_cast);
            tensor<string, []> ssd_conv2d_19_Conv2Dx_pad_type_0 = const()[name = tensor<string, []>("ssd_conv2d_19_Conv2Dx_pad_type_0"), val = tensor<string, []>("same")];
            tensor<int32, [2]> ssd_conv2d_19_Conv2Dx_strides_0 = const()[name = tensor<string, []>("ssd_conv2d_19_Conv2Dx_strides_0"), val = tensor<int32, [2]>([1, 1])];
            tensor<int32, [2]> ssd_conv2d_19_Conv2Dx_dilations_0 = const()[name = tensor<string, []>("ssd_conv2d_19_Conv2Dx_dilations_0"), val = tensor<int32, [2]>([1, 1])];
            tensor<int32, []> ssd_conv2d_19_Conv2Dx_groups_0 = const()[name = tensor<string, []>("ssd_conv2d_19_Conv2Dx_groups_0"), val = tensor<int32, []>(1)];
            tensor<int32, [4]> ssd_conv2d_19_Conv2Dx_pad_0 = const()[name = tensor<string, []>("ssd_conv2d_19_Conv2Dx_pad_0"), val = tensor<int32, [4]>([0, 0, 0, 0])];
            tensor<fp16, [80, 240, 1, 1]> ssd_batch_normalization_20_FusedBatchNormV3_nchw_weight_0_to_fp16 = const()[name = tensor<string, []>("ssd_batch_normalization_20_FusedBatchNormV3_nchw_weight_0_to_fp16"), val = tensor<fp16, [80, 240, 1, 1]>(BLOBFILE(path = tensor<string, []>("@model_path/weights/weight.bin"), offset = tensor<uint64, []>(148800)))];
            tensor<fp16, [80]> ssd_batch_normalization_20_FusedBatchNormV3_nchw_bias_0_to_fp16 = const()[name = tensor<string, []>("ssd_batch_normalization_20_FusedBatchNormV3_nchw_bias_0_to_fp16"), val = tensor<fp16, [80]>(BLOBFILE(path = tensor<string, []>("@model_path/weights/weight.bin"), offset = tensor<uint64, []>(187264)))];
            tensor<fp16, [?, 80, 20, 20]> ssd_batch_normalization_20_FusedBatchNormV3_nchw_cast = conv(bias = ssd_batch_normalization_20_FusedBatchNormV3_nchw_bias_0_to_fp16, dilations = ssd_conv2d_19_Conv2Dx_dilations_0, groups = ssd_conv2d_19_Conv2Dx_groups_0, pad = ssd_conv2d_19_Conv2Dx_pad_0, pad_type = ssd_conv2d_19_Conv2Dx_pad_type_0, strides = ssd_conv2d_19_Conv2Dx_strides_0, weight = ssd_batch_normalization_20_FusedBatchNormV3_nchw_weight_0_to_fp16, x = ssd_multiply_5_mul_cast);
            tensor<string, []> ssd_conv2d_20_Conv2Dx_pad_type_0 = const()[name = tensor<string, []>("ssd_conv2d_20_Conv2Dx_pad_type_0"), val = tensor<string, []>("same")];
            tensor<int32, [2]> ssd_conv2d_20_Conv2Dx_strides_0 = const()[name = tensor<string, []>("ssd_conv2d_20_Conv2Dx_strides_0"), val = tensor<int32, [2]>([1, 1])];
            tensor<int32, [2]> ssd_conv2d_20_Conv2Dx_dilations_0 = const()[name = tensor<string, []>("ssd_conv2d_20_Conv2Dx_dilations_0"), val = tensor<int32, [2]>([1, 1])];
            tensor<int32, []> ssd_conv2d_20_Conv2Dx_groups_0 = const()[name = tensor<string, []>("ssd_conv2d_20_Conv2Dx_groups_0"), val = tensor<int32, []>(1)];
            tensor<int32, [4]> ssd_conv2d_20_Conv2Dx_pad_0 = const()[name = tensor<string, []>("ssd_conv2d_20_Conv2Dx_pad_0"), val = tensor<int32, [4]>([0, 0, 0, 0])];
            tensor<fp16, [200, 80, 1, 1]> ssd_batch_normalization_21_FusedBatchNormV3_nchw_weight_0_to_fp16 = const()[name = tensor<string, []>("ssd_batch_normalization_21_FusedBatchNormV3_nchw_weight_0_to_fp16"), val = tensor<fp16, [200, 80, 1, 1]>(BLOBFILE(path = tensor<string, []>("@model_path/weights/weight.bin"), offset = tensor<uint64, []>(187520)))];
            tensor<fp16, [200]> ssd_batch_normalization_21_FusedBatchNormV3_nchw_bias_0_to_fp16 = const()[name = tensor<string, []>("ssd_batch_normalization_21_FusedBatchNormV3_nchw_bias_0_to_fp16"), val = tensor<fp16, [200]>(BLOBFILE(path = tensor<string, []>("@model_path/weights/weight.bin"), offset = tensor<uint64, []>(219584)))];
            tensor<fp16, [?, 200, 20, 20]> ssd_batch_normalization_21_FusedBatchNormV3_nchw_cast = conv(bias = ssd_batch_normalization_21_FusedBatchNormV3_nchw_bias_0_to_fp16, dilations = ssd_conv2d_20_Conv2Dx_dilations_0, groups = ssd_conv2d_20_Conv2Dx_groups_0, pad = ssd_conv2d_20_Conv2Dx_pad_0, pad_type = ssd_conv2d_20_Conv2Dx_pad_type_0, strides = ssd_conv2d_20_Conv2Dx_strides_0, weight = ssd_batch_normalization_21_FusedBatchNormV3_nchw_weight_0_to_fp16, x = ssd_batch_normalization_20_FusedBatchNormV3_nchw_cast);
            tensor<fp16, []> ssd_rescaling_12_Cast_1_x_to_fp16 = const()[name = tensor<string, []>("ssd_rescaling_12_Cast_1_x_to_fp16"), val = tensor<fp16, []>(0x1.8p+1)];
            tensor<fp16, [?, 200, 20, 20]> ssd_rescaling_12_add_cast = add(x = ssd_batch_normalization_21_FusedBatchNormV3_nchw_cast, y = ssd_rescaling_12_Cast_1_x_to_fp16);
            tensor<fp16, [?, 200, 20, 20]> ssd_re_lu_49_Relu6_cast = relu6(x = ssd_rescaling_12_add_cast);
            tensor<fp16, []> ssd_rescaling_13_Cast_x_to_fp16 = const()[name = tensor<string, []>("ssd_rescaling_13_Cast_x_to_fp16"), val = tensor<fp16, []>(0x1.554p-3)];
            tensor<fp16, [?, 200, 20, 20]> ssd_rescaling_13_mul_cast = mul(x = ssd_re_lu_49_Relu6_cast, y = ssd_rescaling_13_Cast_x_to_fp16);
            tensor<fp16, [?, 200, 20, 20]> ssd_multiply_6_mul_cast = mul(x = ssd_batch_normalization_21_FusedBatchNormV3_nchw_cast, y = ssd_rescaling_13_mul_cast);
            tensor<string, []> ssd_depthwise_conv2d_7_depthwisex_pad_type_0 = const()[name = tensor<string, []>("ssd_depthwise_conv2d_7_depthwisex_pad_type_0"), val = tensor<string, []>("same")];
            tensor<int32, [2]> ssd_depthwise_conv2d_7_depthwisex_strides_0 = const()[name = tensor<string, []>("ssd_depthwise_conv2d_7_depthwisex_strides_0"), val = tensor<int32, [2]>([1, 1])];
            tensor<int32, [2]> ssd_depthwise_conv2d_7_depthwisex_dilations_0 = const()[name = tensor<string, []>("ssd_depthwise_conv2d_7_depthwisex_dilations_0"), val = tensor<int32, [2]>([1, 1])];
            tensor<int32, []> ssd_depthwise_conv2d_7_depthwisex_groups_0 = const()[name = tensor<string, []>("ssd_depthwise_conv2d_7_depthwisex_groups_0"), val = tensor<int32, []>(200)];
            tensor<int32, [4]> ssd_depthwise_conv2d_7_depthwisex_pad_0 = const()[name = tensor<string, []>("ssd_depthwise_conv2d_7_depthwisex_pad_0"), val = tensor<int32, [4]>([0, 0, 0, 0])];
            tensor<fp16, [200, 1, 3, 3]> ssd_batch_normalization_22_FusedBatchNormV3_nchw_weight_0_to_fp16 = const()[name = tensor<string, []>("ssd_batch_normalization_22_FusedBatchNormV3_nchw_weight_0_to_fp16"), val = tensor<fp16, [200, 1, 3, 3]>(BLOBFILE(path = tensor<string, []>("@model_path/weights/weight.bin"), offset = tensor<uint64, []>(220096)))];
            tensor<fp16, [200]> ssd_batch_normalization_22_FusedBatchNormV3_nchw_bias_0_to_fp16 = const()[name = tensor<string, []>("ssd_batch_normalization_22_FusedBatchNormV3_nchw_bias_0_to_fp16"), val = tensor<fp16, [200]>(BLOBFILE(path = tensor<string, []>("@model_path/weights/weight.bin"), offset = tensor<uint64, []>(223808)))];
            tensor<fp16, [?, 200, 20, 20]> ssd_batch_normalization_22_FusedBatchNormV3_nchw_cast = conv(bias = ssd_batch_normalization_22_FusedBatchNormV3_nchw_bias_0_to_fp16, dilations = ssd_depthwise_conv2d_7_depthwisex_dilations_0, groups = ssd_depthwise_conv2d_7_depthwisex_groups_0, pad = ssd_depthwise_conv2d_7_depthwisex_pad_0, pad_type = ssd_depthwise_conv2d_7_depthwisex_pad_type_0, strides = ssd_depthwise_conv2d_7_depthwisex_strides_0, weight = ssd_batch_normalization_22_FusedBatchNormV3_nchw_weight_0_to_fp16, x = ssd_multiply_6_mul_cast);
            tensor<fp16, []> ssd_rescaling_14_Cast_1_x_to_fp16 = const()[name = tensor<string, []>("ssd_rescaling_14_Cast_1_x_to_fp16"), val = tensor<fp16, []>(0x1.8p+1)];
            tensor<fp16, [?, 200, 20, 20]> ssd_rescaling_14_add_cast = add(x = ssd_batch_normalization_22_FusedBatchNormV3_nchw_cast, y = ssd_rescaling_14_Cast_1_x_to_fp16);
            tensor<fp16, [?, 200, 20, 20]> ssd_re_lu_50_Relu6_cast = relu6(x = ssd_rescaling_14_add_cast);
            tensor<fp16, []> ssd_rescaling_15_Cast_x_to_fp16 = const()[name = tensor<string, []>("ssd_rescaling_15_Cast_x_to_fp16"), val = tensor<fp16, []>(0x1.554p-3)];
            tensor<fp16, [?, 200, 20, 20]> ssd_rescaling_15_mul_cast = mul(x = ssd_re_lu_50_Relu6_cast, y = ssd_rescaling_15_Cast_x_to_fp16);
            tensor<fp16, [?, 200, 20, 20]> ssd_multiply_7_mul_cast = mul(x = ssd_batch_normalization_22_FusedBatchNormV3_nchw_cast, y = ssd_rescaling_15_mul_cast);
            tensor<string, []> ssd_conv2d_21_Conv2Dx_pad_type_0 = const()[name = tensor<string, []>("ssd_conv2d_21_Conv2Dx_pad_type_0"), val = tensor<string, []>("same")];
            tensor<int32, [2]> ssd_conv2d_21_Conv2Dx_strides_0 = const()[name = tensor<string, []>("ssd_conv2d_21_Conv2Dx_strides_0"), val = tensor<int32, [2]>([1, 1])];
            tensor<int32, [2]> ssd_conv2d_21_Conv2Dx_dilations_0 = const()[name = tensor<string, []>("ssd_conv2d_21_Conv2Dx_dilations_0"), val = tensor<int32, [2]>([1, 1])];
            tensor<int32, []> ssd_conv2d_21_Conv2Dx_groups_0 = const()[name = tensor<string, []>("ssd_conv2d_21_Conv2Dx_groups_0"), val = tensor<int32, []>(1)];
            tensor<int32, [4]> ssd_conv2d_21_Conv2Dx_pad_0 = const()[name = tensor<string, []>("ssd_conv2d_21_Conv2Dx_pad_0"), val = tensor<int32, [4]>([0, 0, 0, 0])];
            tensor<fp16, [80, 200, 1, 1]> ssd_batch_normalization_23_FusedBatchNormV3_nchw_weight_0_to_fp16 = const()[name = tensor<string, []>("ssd_batch_normalization_23_FusedBatchNormV3_nchw_weight_0_to_fp16"), val = tensor<fp16, [80, 200, 1, 1]>(BLOBFILE(path = tensor<string, []>("@model_path/weights/weight.bin"), offset = tensor<uint64, []>(224320)))];
            tensor<fp16, [80]> ssd_batch_normalization_23_FusedBatchNormV3_nchw_bias_0_to_fp16 = const()[name = tensor<string, []>("ssd_batch_normalization_23_FusedBatchNormV3_nchw_bias_0_to_fp16"), val = tensor<fp16, [80]>(BLOBFILE(path = tensor<string, []>("@model_path/weights/weight.bin"), offset = tensor<uint64, []>(256384)))];
            tensor<fp16, [?, 80, 20, 20]> ssd_batch_normalization_23_FusedBatchNormV3_nchw_cast = conv(bias = ssd_batch_normalization_23_FusedBatchNormV3_nchw_bias_0_to_fp16, dilations = ssd_conv2d_21_Conv2Dx_dilations_0, groups = ssd_conv2d_21_Conv2Dx_groups_0, pad = ssd_conv2d_21_Conv2Dx_pad_0, pad_type = ssd_conv2d_21_Conv2Dx_pad_type_0, strides = ssd_conv2d_21_Conv2Dx_strides_0, weight = ssd_batch_normalization_23_FusedBatchNormV3_nchw_weight_0_to_fp16, x = ssd_multiply_7_mul_cast);
            tensor<fp16, [?, 80, 20, 20]> ssd_add_4_add_cast = add(x = ssd_batch_normalization_23_FusedBatchNormV3_nchw_cast, y = ssd_batch_normalization_20_FusedBatchNormV3_nchw_cast);
            tensor<string, []> ssd_conv2d_22_Conv2Dx_pad_type_0 = const()[name = tensor<string, []>("ssd_conv2d_22_Conv2Dx_pad_type_0"), val = tensor<string, []>("same")];
            tensor<int32, [2]> ssd_conv2d_22_Conv2Dx_strides_0 = const()[name = tensor<string, []>("ssd_conv2d_22_Conv2Dx_strides_0"), val = tensor<int32, [2]>([1, 1])];
            tensor<int32, [2]> ssd_conv2d_22_Conv2Dx_dilations_0 = const()[name = tensor<string, []>("ssd_conv2d_22_Conv2Dx_dilations_0"), val = tensor<int32, [2]>([1, 1])];
            tensor<int32, []> ssd_conv2d_22_Conv2Dx_groups_0 = const()[name = tensor<string, []>("ssd_conv2d_22_Conv2Dx_groups_0"), val = tensor<int32, []>(1)];
            tensor<int32, [4]> ssd_conv2d_22_Conv2Dx_pad_0 = const()[name = tensor<string, []>("ssd_conv2d_22_Conv2Dx_pad_0"), val = tensor<int32, [4]>([0, 0, 0, 0])];
            tensor<fp16, [184, 80, 1, 1]> ssd_batch_normalization_24_FusedBatchNormV3_nchw_weight_0_to_fp16 = const()[name = tensor<string, []>("ssd_batch_normalization_24_FusedBatchNormV3_nchw_weight_0_to_fp16"), val = tensor<fp16, [184, 80, 1, 1]>(BLOBFILE(path = tensor<string, []>("@model_path/weights/weight.bin"), offset = tensor<uint64, []>(256640)))];
            tensor<fp16, [184]> ssd_batch_normalization_24_FusedBatchNormV3_nchw_bias_0_to_fp16 = const()[name = tensor<string, []>("ssd_batch_normalization_24_FusedBatchNormV3_nchw_bias_0_to_fp16"), val = tensor<fp16, [184]>(BLOBFILE(path = tensor<string, []>("@model_path/weights/weight.bin"), offset = tensor<uint64, []>(286144)))];
            tensor<fp16, [?, 184, 20, 20]> ssd_batch_normalization_24_FusedBatchNormV3_nchw_cast = conv(bias = ssd_batch_normalization_24_FusedBatchNormV3_nchw_bias_0_to_fp16, dilations = ssd_conv2d_22_Conv2Dx_dilations_0, groups = ssd_conv2d_22_Conv2Dx_groups_0, pad = ssd_conv2d_22_Conv2Dx_pad_0, pad_type = ssd_conv2d_22_Conv2Dx_pad_type_0, strides = ssd_conv2d_22_Conv2Dx_strides_0, weight = ssd_batch_normalization_24_FusedBatchNormV3_nchw_weight_0_to_fp16, x = ssd_add_4_add_cast);
            tensor<fp16, []> ssd_rescaling_16_Cast_1_x_to_fp16 = const()[name = tensor<string, []>("ssd_rescaling_16_Cast_1_x_to_fp16"), val = tensor<fp16, []>(0x1.8p+1)];
            tensor<fp16, [?, 184, 20, 20]> ssd_rescaling_16_add_cast = add(x = ssd_batch_normalization_24_FusedBatchNormV3_nchw_cast, y = ssd_rescaling_16_Cast_1_x_to_fp16);
            tensor<fp16, [?, 184, 20, 20]> ssd_re_lu_51_Relu6_cast = relu6(x = ssd_rescaling_16_add_cast);
            tensor<fp16, []> ssd_rescaling_17_Cast_x_to_fp16 = const()[name = tensor<string, []>("ssd_rescaling_17_Cast_x_to_fp16"), val = tensor<fp16, []>(0x1.554p-3)];
            tensor<fp16, [?, 184, 20, 20]> ssd_rescaling_17_mul_cast = mul(x = ssd_re_lu_51_Relu6_cast, y = ssd_rescaling_17_Cast_x_to_fp16);
            tensor<fp16, [?, 184, 20, 20]> ssd_multiply_8_mul_cast = mul(x = ssd_batch_normalization_24_FusedBatchNormV3_nchw_cast, y = ssd_rescaling_17_mul_cast);
            tensor<string, []> ssd_depthwise_conv2d_8_depthwisex_pad_type_0 = const()[name = tensor<string, []>("ssd_depthwise_conv2d_8_depthwisex_pad_type_0"), val = tensor<string, []>("same")];
            tensor<int32, [2]> ssd_depthwise_conv2d_8_depthwisex_strides_0 = const()[name = tensor<string, []>("ssd_depthwise_conv2d_8_depthwisex_strides_0"), val = tensor<int32, [2]>([1, 1])];
            tensor<int32, [2]> ssd_depthwise_conv2d_8_depthwisex_dilations_0 = const()[name = tensor<string, []>("ssd_depthwise_conv2d_8_depthwisex_dilations_0"), val = tensor<int32, [2]>([1, 1])];
            tensor<int32, []> ssd_depthwise_conv2d_8_depthwisex_groups_0 = const()[name = tensor<string, []>("ssd_depthwise_conv2d_8_depthwisex_groups_0"), val = tensor<int32, []>(184)];
            tensor<int32, [4]> ssd_depthwise_conv2d_8_depthwisex_pad_0 = const()[name = tensor<string, []>("ssd_depthwise_conv2d_8_depthwisex_pad_0"), val = tensor<int32, [4]>([0, 0, 0, 0])];
            tensor<fp16, [184, 1, 3, 3]> ssd_batch_normalization_25_FusedBatchNormV3_nchw_weight_0_to_fp16 = const()[name = tensor<string, []>("ssd_batch_normalization_25_FusedBatchNormV3_nchw_weight_0_to_fp16"), val = tensor<fp16, [184, 1, 3, 3]>(BLOBFILE(path = tensor<string, []>("@model_path/weights/weight.bin"), offset = tensor<uint64, []>(286592)))];
            tensor<fp16, [184]> ssd_batch_normalization_25_FusedBatchNormV3_nchw_bias_0_to_fp16 = const()[name = tensor<string, []>("ssd_batch_normalization_25_FusedBatchNormV3_nchw_bias_0_to_fp16"), val = tensor<fp16, [184]>(BLOBFILE(path = tensor<string, []>("@model_path/weights/weight.bin"), offset = tensor<uint64, []>(289984)))];
            tensor<fp16, [?, 184, 20, 20]> ssd_batch_normalization_25_FusedBatchNormV3_nchw_cast = conv(bias = ssd_batch_normalization_25_FusedBatchNormV3_nchw_bias_0_to_fp16, dilations = ssd_depthwise_conv2d_8_depthwisex_dilations_0, groups = ssd_depthwise_conv2d_8_depthwisex_groups_0, pad = ssd_depthwise_conv2d_8_depthwisex_pad_0, pad_type = ssd_depthwise_conv2d_8_depthwisex_pad_type_0, strides = ssd_depthwise_conv2d_8_depthwisex_strides_0, weight = ssd_batch_normalization_25_FusedBatchNormV3_nchw_weight_0_to_fp16, x = ssd_multiply_8_mul_cast);
            tensor<fp16, []> ssd_rescaling_18_Cast_1_x_to_fp16 = const()[name = tensor<string, []>("ssd_rescaling_18_Cast_1_x_to_fp16"), val = tensor<fp16, []>(0x1.8p+1)];
            tensor<fp16, [?, 184, 20, 20]> ssd_rescaling_18_add_cast = add(x = ssd_batch_normalization_25_FusedBatchNormV3_nchw_cast, y = ssd_rescaling_18_Cast_1_x_to_fp16);
            tensor<fp16, [?, 184, 20, 20]> ssd_re_lu_52_Relu6_cast = relu6(x = ssd_rescaling_18_add_cast);
            tensor<fp16, []> ssd_rescaling_19_Cast_x_to_fp16 = const()[name = tensor<string, []>("ssd_rescaling_19_Cast_x_to_fp16"), val = tensor<fp16, []>(0x1.554p-3)];
            tensor<fp16, [?, 184, 20, 20]> ssd_rescaling_19_mul_cast = mul(x = ssd_re_lu_52_Relu6_cast, y = ssd_rescaling_19_Cast_x_to_fp16);
            tensor<fp16, [?, 184, 20, 20]> ssd_multiply_9_mul_cast = mul(x = ssd_batch_normalization_25_FusedBatchNormV3_nchw_cast, y = ssd_rescaling_19_mul_cast);
            tensor<string, []> ssd_conv2d_23_Conv2Dx_pad_type_0 = const()[name = tensor<string, []>("ssd_conv2d_23_Conv2Dx_pad_type_0"), val = tensor<string, []>("same")];
            tensor<int32, [2]> ssd_conv2d_23_Conv2Dx_strides_0 = const()[name = tensor<string, []>("ssd_conv2d_23_Conv2Dx_strides_0"), val = tensor<int32, [2]>([1, 1])];
            tensor<int32, [2]> ssd_conv2d_23_Conv2Dx_dilations_0 = const()[name = tensor<string, []>("ssd_conv2d_23_Conv2Dx_dilations_0"), val = tensor<int32, [2]>([1, 1])];
            tensor<int32, []> ssd_conv2d_23_Conv2Dx_groups_0 = const()[name = tensor<string, []>("ssd_conv2d_23_Conv2Dx_groups_0"), val = tensor<int32, []>(1)];
            tensor<int32, [4]> ssd_conv2d_23_Conv2Dx_pad_0 = const()[name = tensor<string, []>("ssd_conv2d_23_Conv2Dx_pad_0"), val = tensor<int32, [4]>([0, 0, 0, 0])];
            tensor<fp16, [80, 184, 1, 1]> ssd_batch_normalization_26_FusedBatchNormV3_nchw_weight_0_to_fp16 = const()[name = tensor<string, []>("ssd_batch_normalization_26_FusedBatchNormV3_nchw_weight_0_to_fp16"), val = tensor<fp16, [80, 184, 1, 1]>(BLOBFILE(path = tensor<string, []>("@model_path/weights/weight.bin"), offset = tensor<uint64, []>(290432)))];
            tensor<fp16, [80]> ssd_batch_normalization_26_FusedBatchNormV3_nchw_bias_0_to_fp16 = const()[name = tensor<string, []>("ssd_batch_normalization_26_FusedBatchNormV3_nchw_bias_0_to_fp16"), val = tensor<fp16, [80]>(BLOBFILE(path = tensor<string, []>("@model_path/weights/weight.bin"), offset = tensor<uint64, []>(319936)))];
            tensor<fp16, [?, 80, 20, 20]> ssd_batch_normalization_26_FusedBatchNormV3_nchw_cast = conv(bias = ssd_batch_normalization_26_FusedBatchNormV3_nchw_bias_0_to_fp16, dilations = ssd_conv2d_23_Conv2Dx_dilations_0, groups = ssd_conv2d_23_Conv2Dx_groups_0, pad = ssd_conv2d_23_Conv2Dx_pad_0, pad_type = ssd_conv2d_23_Conv2Dx_pad_type_0, strides = ssd_conv2d_23_Conv2Dx_strides_0, weight = ssd_batch_normalization_26_FusedBatchNormV3_nchw_weight_0_to_fp16, x = ssd_multiply_9_mul_cast);
            tensor<fp16, [?, 80, 20, 20]> ssd_add_5_add_cast = add(x = ssd_batch_normalization_26_FusedBatchNormV3_nchw_cast, y = ssd_add_4_add_cast);
            tensor<string, []> ssd_conv2d_24_Conv2Dx_pad_type_0 = const()[name = tensor<string, []>("ssd_conv2d_24_Conv2Dx_pad_type_0"), val = tensor<string, []>("same")];
            tensor<int32, [2]> ssd_conv2d_24_Conv2Dx_strides_0 = const()[name = tensor<string, []>("ssd_conv2d_24_Conv2Dx_strides_0"), val = tensor<int32, [2]>([1, 1])];
            tensor<int32, [2]> ssd_conv2d_24_Conv2Dx_dilations_0 = const()[name = tensor<string, []>("ssd_conv2d_24_Conv2Dx_dilations_0"), val = tensor<int32, [2]>([1, 1])];
            tensor<int32, []> ssd_conv2d_24_Conv2Dx_groups_0 = const()[name = tensor<string, []>("ssd_conv2d_24_Conv2Dx_groups_0"), val = tensor<int32, []>(1)];
            tensor<int32, [4]> ssd_conv2d_24_Conv2Dx_pad_0 = const()[name = tensor<string, []>("ssd_conv2d_24_Conv2Dx_pad_0"), val = tensor<int32, [4]>([0, 0, 0, 0])];
            tensor<fp16, [184, 80, 1, 1]> ssd_batch_normalization_27_FusedBatchNormV3_nchw_weight_0_to_fp16 = const()[name = tensor<string, []>("ssd_batch_normalization_27_FusedBatchNormV3_nchw_weight_0_to_fp16"), val = tensor<fp16, [184, 80, 1, 1]>(BLOBFILE(path = tensor<string, []>("@model_path/weights/weight.bin"), offset = tensor<uint64, []>(320192)))];
            tensor<fp16, [184]> ssd_batch_normalization_27_FusedBatchNormV3_nchw_bias_0_to_fp16 = const()[name = tensor<string, []>("ssd_batch_normalization_27_FusedBatchNormV3_nchw_bias_0_to_fp16"), val = tensor<fp16, [184]>(BLOBFILE(path = tensor<string, []>("@model_path/weights/weight.bin"), offset = tensor<uint64, []>(349696)))];
            tensor<fp16, [?, 184, 20, 20]> ssd_batch_normalization_27_FusedBatchNormV3_nchw_cast = conv(bias = ssd_batch_normalization_27_FusedBatchNormV3_nchw_bias_0_to_fp16, dilations = ssd_conv2d_24_Conv2Dx_dilations_0, groups = ssd_conv2d_24_Conv2Dx_groups_0, pad = ssd_conv2d_24_Conv2Dx_pad_0, pad_type = ssd_conv2d_24_Conv2Dx_pad_type_0, strides = ssd_conv2d_24_Conv2Dx_strides_0, weight = ssd_batch_normalization_27_FusedBatchNormV3_nchw_weight_0_to_fp16, x = ssd_add_5_add_cast);
            tensor<fp16, []> ssd_rescaling_20_Cast_1_x_to_fp16 = const()[name = tensor<string, []>("ssd_rescaling_20_Cast_1_x_to_fp16"), val = tensor<fp16, []>(0x1.8p+1)];
            tensor<fp16, [?, 184, 20, 20]> ssd_rescaling_20_add_cast = add(x = ssd_batch_normalization_27_FusedBatchNormV3_nchw_cast, y = ssd_rescaling_20_Cast_1_x_to_fp16);
            tensor<fp16, [?, 184, 20, 20]> ssd_re_lu_53_Relu6_cast = relu6(x = ssd_rescaling_20_add_cast);
            tensor<fp16, []> ssd_rescaling_21_Cast_x_to_fp16 = const()[name = tensor<string, []>("ssd_rescaling_21_Cast_x_to_fp16"), val = tensor<fp16, []>(0x1.554p-3)];
            tensor<fp16, [?, 184, 20, 20]> ssd_rescaling_21_mul_cast = mul(x = ssd_re_lu_53_Relu6_cast, y = ssd_rescaling_21_Cast_x_to_fp16);
            tensor<fp16, [?, 184, 20, 20]> ssd_multiply_10_mul_cast = mul(x = ssd_batch_normalization_27_FusedBatchNormV3_nchw_cast, y = ssd_rescaling_21_mul_cast);
            tensor<string, []> ssd_depthwise_conv2d_9_depthwisex_pad_type_0 = const()[name = tensor<string, []>("ssd_depthwise_conv2d_9_depthwisex_pad_type_0"), val = tensor<string, []>("same")];
            tensor<int32, [2]> ssd_depthwise_conv2d_9_depthwisex_strides_0 = const()[name = tensor<string, []>("ssd_depthwise_conv2d_9_depthwisex_strides_0"), val = tensor<int32, [2]>([1, 1])];
            tensor<int32, [2]> ssd_depthwise_conv2d_9_depthwisex_dilations_0 = const()[name = tensor<string, []>("ssd_depthwise_conv2d_9_depthwisex_dilations_0"), val = tensor<int32, [2]>([1, 1])];
            tensor<int32, []> ssd_depthwise_conv2d_9_depthwisex_groups_0 = const()[name = tensor<string, []>("ssd_depthwise_conv2d_9_depthwisex_groups_0"), val = tensor<int32, []>(184)];
            tensor<int32, [4]> ssd_depthwise_conv2d_9_depthwisex_pad_0 = const()[name = tensor<string, []>("ssd_depthwise_conv2d_9_depthwisex_pad_0"), val = tensor<int32, [4]>([0, 0, 0, 0])];
            tensor<fp16, [184, 1, 3, 3]> ssd_batch_normalization_28_FusedBatchNormV3_nchw_weight_0_to_fp16 = const()[name = tensor<string, []>("ssd_batch_normalization_28_FusedBatchNormV3_nchw_weight_0_to_fp16"), val = tensor<fp16, [184, 1, 3, 3]>(BLOBFILE(path = tensor<string, []>("@model_path/weights/weight.bin"), offset = tensor<uint64, []>(350144)))];
            tensor<fp16, [184]> ssd_batch_normalization_28_FusedBatchNormV3_nchw_bias_0_to_fp16 = const()[name = tensor<string, []>("ssd_batch_normalization_28_FusedBatchNormV3_nchw_bias_0_to_fp16"), val = tensor<fp16, [184]>(BLOBFILE(path = tensor<string, []>("@model_path/weights/weight.bin"), offset = tensor<uint64, []>(353536)))];
            tensor<fp16, [?, 184, 20, 20]> ssd_batch_normalization_28_FusedBatchNormV3_nchw_cast = conv(bias = ssd_batch_normalization_28_FusedBatchNormV3_nchw_bias_0_to_fp16, dilations = ssd_depthwise_conv2d_9_depthwisex_dilations_0, groups = ssd_depthwise_conv2d_9_depthwisex_groups_0, pad = ssd_depthwise_conv2d_9_depthwisex_pad_0, pad_type = ssd_depthwise_conv2d_9_depthwisex_pad_type_0, strides = ssd_depthwise_conv2d_9_depthwisex_strides_0, weight = ssd_batch_normalization_28_FusedBatchNormV3_nchw_weight_0_to_fp16, x = ssd_multiply_10_mul_cast);
            tensor<fp16, []> ssd_rescaling_22_Cast_1_x_to_fp16 = const()[name = tensor<string, []>("ssd_rescaling_22_Cast_1_x_to_fp16"), val = tensor<fp16, []>(0x1.8p+1)];
            tensor<fp16, [?, 184, 20, 20]> ssd_rescaling_22_add_cast = add(x = ssd_batch_normalization_28_FusedBatchNormV3_nchw_cast, y = ssd_rescaling_22_Cast_1_x_to_fp16);
            tensor<fp16, [?, 184, 20, 20]> ssd_re_lu_54_Relu6_cast = relu6(x = ssd_rescaling_22_add_cast);
            tensor<fp16, []> ssd_rescaling_23_Cast_x_to_fp16 = const()[name = tensor<string, []>("ssd_rescaling_23_Cast_x_to_fp16"), val = tensor<fp16, []>(0x1.554p-3)];
            tensor<fp16, [?, 184, 20, 20]> ssd_rescaling_23_mul_cast = mul(x = ssd_re_lu_54_Relu6_cast, y = ssd_rescaling_23_Cast_x_to_fp16);
            tensor<fp16, [?, 184, 20, 20]> ssd_multiply_11_mul_cast = mul(x = ssd_batch_normalization_28_FusedBatchNormV3_nchw_cast, y = ssd_rescaling_23_mul_cast);
            tensor<string, []> ssd_conv2d_25_Conv2Dx_pad_type_0 = const()[name = tensor<string, []>("ssd_conv2d_25_Conv2Dx_pad_type_0"), val = tensor<string, []>("same")];
            tensor<int32, [2]> ssd_conv2d_25_Conv2Dx_strides_0 = const()[name = tensor<string, []>("ssd_conv2d_25_Conv2Dx_strides_0"), val = tensor<int32, [2]>([1, 1])];
            tensor<int32, [2]> ssd_conv2d_25_Conv2Dx_dilations_0 = const()[name = tensor<string, []>("ssd_conv2d_25_Conv2Dx_dilations_0"), val = tensor<int32, [2]>([1, 1])];
            tensor<int32, []> ssd_conv2d_25_Conv2Dx_groups_0 = const()[name = tensor<string, []>("ssd_conv2d_25_Conv2Dx_groups_0"), val = tensor<int32, []>(1)];
            tensor<int32, [4]> ssd_conv2d_25_Conv2Dx_pad_0 = const()[name = tensor<string, []>("ssd_conv2d_25_Conv2Dx_pad_0"), val = tensor<int32, [4]>([0, 0, 0, 0])];
            tensor<fp16, [80, 184, 1, 1]> ssd_batch_normalization_29_FusedBatchNormV3_nchw_weight_0_to_fp16 = const()[name = tensor<string, []>("ssd_batch_normalization_29_FusedBatchNormV3_nchw_weight_0_to_fp16"), val = tensor<fp16, [80, 184, 1, 1]>(BLOBFILE(path = tensor<string, []>("@model_path/weights/weight.bin"), offset = tensor<uint64, []>(353984)))];
            tensor<fp16, [80]> ssd_batch_normalization_29_FusedBatchNormV3_nchw_bias_0_to_fp16 = const()[name = tensor<string, []>("ssd_batch_normalization_29_FusedBatchNormV3_nchw_bias_0_to_fp16"), val = tensor<fp16, [80]>(BLOBFILE(path = tensor<string, []>("@model_path/weights/weight.bin"), offset = tensor<uint64, []>(383488)))];
            tensor<fp16, [?, 80, 20, 20]> ssd_batch_normalization_29_FusedBatchNormV3_nchw_cast = conv(bias = ssd_batch_normalization_29_FusedBatchNormV3_nchw_bias_0_to_fp16, dilations = ssd_conv2d_25_Conv2Dx_dilations_0, groups = ssd_conv2d_25_Conv2Dx_groups_0, pad = ssd_conv2d_25_Conv2Dx_pad_0, pad_type = ssd_conv2d_25_Conv2Dx_pad_type_0, strides = ssd_conv2d_25_Conv2Dx_strides_0, weight = ssd_batch_normalization_29_FusedBatchNormV3_nchw_weight_0_to_fp16, x = ssd_multiply_11_mul_cast);
            tensor<fp16, [?, 80, 20, 20]> ssd_add_6_add_cast = add(x = ssd_batch_normalization_29_FusedBatchNormV3_nchw_cast, y = ssd_add_5_add_cast);
            tensor<string, []> ssd_conv2d_26_Conv2Dx_pad_type_0 = const()[name = tensor<string, []>("ssd_conv2d_26_Conv2Dx_pad_type_0"), val = tensor<string, []>("same")];
            tensor<int32, [2]> ssd_conv2d_26_Conv2Dx_strides_0 = const()[name = tensor<string, []>("ssd_conv2d_26_Conv2Dx_strides_0"), val = tensor<int32, [2]>([1, 1])];
            tensor<int32, [2]> ssd_conv2d_26_Conv2Dx_dilations_0 = const()[name = tensor<string, []>("ssd_conv2d_26_Conv2Dx_dilations_0"), val = tensor<int32, [2]>([1, 1])];
            tensor<int32, []> ssd_conv2d_26_Conv2Dx_groups_0 = const()[name = tensor<string, []>("ssd_conv2d_26_Conv2Dx_groups_0"), val = tensor<int32, []>(1)];
            tensor<int32, [4]> ssd_conv2d_26_Conv2Dx_pad_0 = const()[name = tensor<string, []>("ssd_conv2d_26_Conv2Dx_pad_0"), val = tensor<int32, [4]>([0, 0, 0, 0])];
            tensor<fp16, [480, 80, 1, 1]> ssd_batch_normalization_30_FusedBatchNormV3_nchw_weight_0_to_fp16 = const()[name = tensor<string, []>("ssd_batch_normalization_30_FusedBatchNormV3_nchw_weight_0_to_fp16"), val = tensor<fp16, [480, 80, 1, 1]>(BLOBFILE(path = tensor<string, []>("@model_path/weights/weight.bin"), offset = tensor<uint64, []>(383744)))];
            tensor<fp16, [480]> ssd_batch_normalization_30_FusedBatchNormV3_nchw_bias_0_to_fp16 = const()[name = tensor<string, []>("ssd_batch_normalization_30_FusedBatchNormV3_nchw_bias_0_to_fp16"), val = tensor<fp16, [480]>(BLOBFILE(path = tensor<string, []>("@model_path/weights/weight.bin"), offset = tensor<uint64, []>(460608)))];
            tensor<fp16, [?, 480, 20, 20]> ssd_batch_normalization_30_FusedBatchNormV3_nchw_cast = conv(bias = ssd_batch_normalization_30_FusedBatchNormV3_nchw_bias_0_to_fp16, dilations = ssd_conv2d_26_Conv2Dx_dilations_0, groups = ssd_conv2d_26_Conv2Dx_groups_0, pad = ssd_conv2d_26_Conv2Dx_pad_0, pad_type = ssd_conv2d_26_Conv2Dx_pad_type_0, strides = ssd_conv2d_26_Conv2Dx_strides_0, weight = ssd_batch_normalization_30_FusedBatchNormV3_nchw_weight_0_to_fp16, x = ssd_add_6_add_cast);
            tensor<fp16, []> ssd_rescaling_24_Cast_1_x_to_fp16 = const()[name = tensor<string, []>("ssd_rescaling_24_Cast_1_x_to_fp16"), val = tensor<fp16, []>(0x1.8p+1)];
            tensor<fp16, [?, 480, 20, 20]> ssd_rescaling_24_add_cast = add(x = ssd_batch_normalization_30_FusedBatchNormV3_nchw_cast, y = ssd_rescaling_24_Cast_1_x_to_fp16);
            tensor<fp16, [?, 480, 20, 20]> ssd_re_lu_55_Relu6_cast = relu6(x = ssd_rescaling_24_add_cast);
            tensor<fp16, []> ssd_rescaling_25_Cast_x_to_fp16 = const()[name = tensor<string, []>("ssd_rescaling_25_Cast_x_to_fp16"), val = tensor<fp16, []>(0x1.554p-3)];
            tensor<fp16, [?, 480, 20, 20]> ssd_rescaling_25_mul_cast = mul(x = ssd_re_lu_55_Relu6_cast, y = ssd_rescaling_25_Cast_x_to_fp16);
            tensor<fp16, [?, 480, 20, 20]> ssd_multiply_12_mul_cast = mul(x = ssd_batch_normalization_30_FusedBatchNormV3_nchw_cast, y = ssd_rescaling_25_mul_cast);
            tensor<string, []> ssd_depthwise_conv2d_10_depthwisex_pad_type_0 = const()[name = tensor<string, []>("ssd_depthwise_conv2d_10_depthwisex_pad_type_0"), val = tensor<string, []>("same")];
            tensor<int32, [2]> ssd_depthwise_conv2d_10_depthwisex_strides_0 = const()[name = tensor<string, []>("ssd_depthwise_conv2d_10_depthwisex_strides_0"), val = tensor<int32, [2]>([1, 1])];
            tensor<int32, [2]> ssd_depthwise_conv2d_10_depthwisex_dilations_0 = const()[name = tensor<string, []>("ssd_depthwise_conv2d_10_depthwisex_dilations_0"), val = tensor<int32, [2]>([1, 1])];
            tensor<int32, []> ssd_depthwise_conv2d_10_depthwisex_groups_0 = const()[name = tensor<string, []>("ssd_depthwise_conv2d_10_depthwisex_groups_0"), val = tensor<int32, []>(480)];
            tensor<int32, [4]> ssd_depthwise_conv2d_10_depthwisex_pad_0 = const()[name = tensor<string, []>("ssd_depthwise_conv2d_10_depthwisex_pad_0"), val = tensor<int32, [4]>([0, 0, 0, 0])];
            tensor<fp16, [480, 1, 3, 3]> ssd_batch_normalization_31_FusedBatchNormV3_nchw_weight_0_to_fp16 = const()[name = tensor<string, []>("ssd_batch_normalization_31_FusedBatchNormV3_nchw_weight_0_to_fp16"), val = tensor<fp16, [480, 1, 3, 3]>(BLOBFILE(path = tensor<string, []>("@model_path/weights/weight.bin"), offset = tensor<uint64, []>(461632)))];
            tensor<fp16, [480]> ssd_batch_normalization_31_FusedBatchNormV3_nchw_bias_0_to_fp16 = const()[name = tensor<string, []>("ssd_batch_normalization_31_FusedBatchNormV3_nchw_bias_0_to_fp16"), val = tensor<fp16, [480]>(BLOBFILE(path = tensor<string, []>("@model_path/weights/weight.bin"), offset = tensor<uint64, []>(470336)))];
            tensor<fp16, [?, 480, 20, 20]> ssd_batch_normalization_31_FusedBatchNormV3_nchw_cast = conv(bias = ssd_batch_normalization_31_FusedBatchNormV3_nchw_bias_0_to_fp16, dilations = ssd_depthwise_conv2d_10_depthwisex_dilations_0, groups = ssd_depthwise_conv2d_10_depthwisex_groups_0, pad = ssd_depthwise_conv2d_10_depthwisex_pad_0, pad_type = ssd_depthwise_conv2d_10_depthwisex_pad_type_0, strides = ssd_depthwise_conv2d_10_depthwisex_strides_0, weight = ssd_batch_normalization_31_FusedBatchNormV3_nchw_weight_0_to_fp16, x = ssd_multiply_12_mul_cast);
            tensor<fp16, []> ssd_rescaling_26_Cast_1_x_to_fp16 = const()[name = tensor<string, []>("ssd_rescaling_26_Cast_1_x_to_fp16"), val = tensor<fp16, []>(0x1.8p+1)];
            tensor<fp16, [?, 480, 20, 20]> ssd_rescaling_26_add_cast = add(x = ssd_batch_normalization_31_FusedBatchNormV3_nchw_cast, y = ssd_rescaling_26_Cast_1_x_to_fp16);
            tensor<fp16, [?, 480, 20, 20]> ssd_re_lu_56_Relu6_cast = relu6(x = ssd_rescaling_26_add_cast);
            tensor<fp16, []> ssd_rescaling_27_Cast_x_to_fp16 = const()[name = tensor<string, []>("ssd_rescaling_27_Cast_x_to_fp16"), val = tensor<fp16, []>(0x1.554p-3)];
            tensor<fp16, [?, 480, 20, 20]> ssd_rescaling_27_mul_cast = mul(x = ssd_re_lu_56_Relu6_cast, y = ssd_rescaling_27_Cast_x_to_fp16);
            tensor<fp16, [?, 480, 20, 20]> ssd_multiply_13_mul_cast = mul(x = ssd_batch_normalization_31_FusedBatchNormV3_nchw_cast, y = ssd_rescaling_27_mul_cast);
            tensor<int32, [2]> ssd_global_average_pooling2d_3_Mean_axes_0 = const()[name = tensor<string, []>("ssd_global_average_pooling2d_3_Mean_axes_0"), val = tensor<int32, [2]>([1, 2])];
            tensor<bool, []> ssd_global_average_pooling2d_3_Mean_keep_dims_0 = const()[name = tensor<string, []>("ssd_global_average_pooling2d_3_Mean_keep_dims_0"), val = tensor<bool, []>(false)];
            tensor<int32, [4]> transpose_278_perm_0 = const()[name = tensor<string, []>("transpose_278_perm_0"), val = tensor<int32, [4]>([0, 2, 3, 1])];
            tensor<fp16, [?, 20, 20, 480]> transpose_304 = transpose(perm = transpose_278_perm_0, x = ssd_multiply_13_mul_cast);
            tensor<fp16, [?, 480]> ssd_global_average_pooling2d_3_Mean_cast = reduce_mean(axes = ssd_global_average_pooling2d_3_Mean_axes_0, keep_dims = ssd_global_average_pooling2d_3_Mean_keep_dims_0, x = transpose_304);
            tensor<int32, [4]> ssd_reshape_3_Reshape_shapex = const()[name = tensor<string, []>("ssd_reshape_3_Reshape_shapex"), val = tensor<int32, [4]>([-1, 1, 1, 480])];
            tensor<fp16, [?, 1, 1, 480]> ssd_reshape_3_Reshape_cast = reshape(shape = ssd_reshape_3_Reshape_shapex, x = ssd_global_average_pooling2d_3_Mean_cast);
            tensor<int32, [4]> transpose_109_perm_0 = const()[name = tensor<string, []>("transpose_109_perm_0"), val = tensor<int32, [4]>([0, 3, 1, 2])];
            tensor<string, []> ssd_sequential_5_conv2d_27_Conv2Dx_pad_type_0 = const()[name = tensor<string, []>("ssd_sequential_5_conv2d_27_Conv2Dx_pad_type_0"), val = tensor<string, []>("valid")];
            tensor<int32, [2]> ssd_sequential_5_conv2d_27_Conv2Dx_strides_0 = const()[name = tensor<string, []>("ssd_sequential_5_conv2d_27_Conv2Dx_strides_0"), val = tensor<int32, [2]>([1, 1])];
            tensor<int32, [2]> ssd_sequential_5_conv2d_27_Conv2Dx_dilations_0 = const()[name = tensor<string, []>("ssd_sequential_5_conv2d_27_Conv2Dx_dilations_0"), val = tensor<int32, [2]>([1, 1])];
            tensor<int32, []> ssd_sequential_5_conv2d_27_Conv2Dx_groups_0 = const()[name = tensor<string, []>("ssd_sequential_5_conv2d_27_Conv2Dx_groups_0"), val = tensor<int32, []>(1)];
            tensor<int32, [4]> ssd_sequential_5_conv2d_27_Conv2Dx_pad_0 = const()[name = tensor<string, []>("ssd_sequential_5_conv2d_27_Conv2Dx_pad_0"), val = tensor<int32, [4]>([0, 0, 0, 0])];
            tensor<fp16, [120, 480, 1, 1]> transpose_108_to_fp16 = const()[name = tensor<string, []>("transpose_108_to_fp16"), val = tensor<fp16, [120, 480, 1, 1]>(BLOBFILE(path = tensor<string, []>("@model_path/weights/weight.bin"), offset = tensor<uint64, []>(471360)))];
            tensor<fp16, [120]> const_25_to_fp16 = const()[name = tensor<string, []>("const_25_to_fp16"), val = tensor<fp16, [120]>(BLOBFILE(path = tensor<string, []>("@model_path/weights/weight.bin"), offset = tensor<uint64, []>(586624)))];
            tensor<fp16, [?, 480, 1, 1]> transpose_303 = transpose(perm = transpose_109_perm_0, x = ssd_reshape_3_Reshape_cast);
            tensor<fp16, [?, 120, 1, 1]> ssd_sequential_5_conv2d_27_BiasAdd_cast = conv(bias = const_25_to_fp16, dilations = ssd_sequential_5_conv2d_27_Conv2Dx_dilations_0, groups = ssd_sequential_5_conv2d_27_Conv2Dx_groups_0, pad = ssd_sequential_5_conv2d_27_Conv2Dx_pad_0, pad_type = ssd_sequential_5_conv2d_27_Conv2Dx_pad_type_0, strides = ssd_sequential_5_conv2d_27_Conv2Dx_strides_0, weight = transpose_108_to_fp16, x = transpose_303);
            tensor<fp16, [?, 120, 1, 1]> ssd_sequential_5_re_lu_14_Relu_cast = relu(x = ssd_sequential_5_conv2d_27_BiasAdd_cast);
            tensor<string, []> ssd_sequential_5_conv2d_28_Conv2Dx_pad_type_0 = const()[name = tensor<string, []>("ssd_sequential_5_conv2d_28_Conv2Dx_pad_type_0"), val = tensor<string, []>("valid")];
            tensor<int32, [2]> ssd_sequential_5_conv2d_28_Conv2Dx_strides_0 = const()[name = tensor<string, []>("ssd_sequential_5_conv2d_28_Conv2Dx_strides_0"), val = tensor<int32, [2]>([1, 1])];
            tensor<int32, [2]> ssd_sequential_5_conv2d_28_Conv2Dx_dilations_0 = const()[name = tensor<string, []>("ssd_sequential_5_conv2d_28_Conv2Dx_dilations_0"), val = tensor<int32, [2]>([1, 1])];
            tensor<int32, []> ssd_sequential_5_conv2d_28_Conv2Dx_groups_0 = const()[name = tensor<string, []>("ssd_sequential_5_conv2d_28_Conv2Dx_groups_0"), val = tensor<int32, []>(1)];
            tensor<int32, [4]> ssd_sequential_5_conv2d_28_Conv2Dx_pad_0 = const()[name = tensor<string, []>("ssd_sequential_5_conv2d_28_Conv2Dx_pad_0"), val = tensor<int32, [4]>([0, 0, 0, 0])];
            tensor<fp16, [480, 120, 1, 1]> transpose_110_to_fp16 = const()[name = tensor<string, []>("transpose_110_to_fp16"), val = tensor<fp16, [480, 120, 1, 1]>(BLOBFILE(path = tensor<string, []>("@model_path/weights/weight.bin"), offset = tensor<uint64, []>(586944)))];
            tensor<fp16, [480]> const_27_to_fp16 = const()[name = tensor<string, []>("const_27_to_fp16"), val = tensor<fp16, [480]>(BLOBFILE(path = tensor<string, []>("@model_path/weights/weight.bin"), offset = tensor<uint64, []>(702208)))];
            tensor<fp16, [?, 480, 1, 1]> ssd_rescaling_28_add_cast = conv(bias = const_27_to_fp16, dilations = ssd_sequential_5_conv2d_28_Conv2Dx_dilations_0, groups = ssd_sequential_5_conv2d_28_Conv2Dx_groups_0, pad = ssd_sequential_5_conv2d_28_Conv2Dx_pad_0, pad_type = ssd_sequential_5_conv2d_28_Conv2Dx_pad_type_0, strides = ssd_sequential_5_conv2d_28_Conv2Dx_strides_0, weight = transpose_110_to_fp16, x = ssd_sequential_5_re_lu_14_Relu_cast);
            tensor<fp16, [?, 480, 1, 1]> ssd_re_lu_57_Relu6_cast = relu6(x = ssd_rescaling_28_add_cast);
            tensor<fp16, []> ssd_rescaling_29_Cast_x_to_fp16 = const()[name = tensor<string, []>("ssd_rescaling_29_Cast_x_to_fp16"), val = tensor<fp16, []>(0x1.554p-3)];
            tensor<fp16, [?, 480, 1, 1]> ssd_rescaling_29_mul_cast = mul(x = ssd_re_lu_57_Relu6_cast, y = ssd_rescaling_29_Cast_x_to_fp16);
            tensor<fp16, [?, 480, 20, 20]> ssd_multiply_14_mul_cast = mul(x = ssd_multiply_13_mul_cast, y = ssd_rescaling_29_mul_cast);
            tensor<string, []> ssd_conv2d_29_Conv2Dx_pad_type_0 = const()[name = tensor<string, []>("ssd_conv2d_29_Conv2Dx_pad_type_0"), val = tensor<string, []>("same")];
            tensor<int32, [2]> ssd_conv2d_29_Conv2Dx_strides_0 = const()[name = tensor<string, []>("ssd_conv2d_29_Conv2Dx_strides_0"), val = tensor<int32, [2]>([1, 1])];
            tensor<int32, [2]> ssd_conv2d_29_Conv2Dx_dilations_0 = const()[name = tensor<string, []>("ssd_conv2d_29_Conv2Dx_dilations_0"), val = tensor<int32, [2]>([1, 1])];
            tensor<int32, []> ssd_conv2d_29_Conv2Dx_groups_0 = const()[name = tensor<string, []>("ssd_conv2d_29_Conv2Dx_groups_0"), val = tensor<int32, []>(1)];
            tensor<int32, [4]> ssd_conv2d_29_Conv2Dx_pad_0 = const()[name = tensor<string, []>("ssd_conv2d_29_Conv2Dx_pad_0"), val = tensor<int32, [4]>([0, 0, 0, 0])];
            tensor<fp16, [112, 480, 1, 1]> ssd_batch_normalization_32_FusedBatchNormV3_nchw_weight_0_to_fp16 = const()[name = tensor<string, []>("ssd_batch_normalization_32_FusedBatchNormV3_nchw_weight_0_to_fp16"), val = tensor<fp16, [112, 480, 1, 1]>(BLOBFILE(path = tensor<string, []>("@model_path/weights/weight.bin"), offset = tensor<uint64, []>(703232)))];
            tensor<fp16, [112]> ssd_batch_normalization_32_FusedBatchNormV3_nchw_bias_0_to_fp16 = const()[name = tensor<string, []>("ssd_batch_normalization_32_FusedBatchNormV3_nchw_bias_0_to_fp16"), val = tensor<fp16, [112]>(BLOBFILE(path = tensor<string, []>("@model_path/weights/weight.bin"), offset = tensor<uint64, []>(810816)))];
            tensor<fp16, [?, 112, 20, 20]> ssd_batch_normalization_32_FusedBatchNormV3_nchw_cast = conv(bias = ssd_batch_normalization_32_FusedBatchNormV3_nchw_bias_0_to_fp16, dilations = ssd_conv2d_29_Conv2Dx_dilations_0, groups = ssd_conv2d_29_Conv2Dx_groups_0, pad = ssd_conv2d_29_Conv2Dx_pad_0, pad_type = ssd_conv2d_29_Conv2Dx_pad_type_0, strides = ssd_conv2d_29_Conv2Dx_strides_0, weight = ssd_batch_normalization_32_FusedBatchNormV3_nchw_weight_0_to_fp16, x = ssd_multiply_14_mul_cast);
            tensor<string, []> ssd_conv2d_30_Conv2Dx_pad_type_0 = const()[name = tensor<string, []>("ssd_conv2d_30_Conv2Dx_pad_type_0"), val = tensor<string, []>("same")];
            tensor<int32, [2]> ssd_conv2d_30_Conv2Dx_strides_0 = const()[name = tensor<string, []>("ssd_conv2d_30_Conv2Dx_strides_0"), val = tensor<int32, [2]>([1, 1])];
            tensor<int32, [2]> ssd_conv2d_30_Conv2Dx_dilations_0 = const()[name = tensor<string, []>("ssd_conv2d_30_Conv2Dx_dilations_0"), val = tensor<int32, [2]>([1, 1])];
            tensor<int32, []> ssd_conv2d_30_Conv2Dx_groups_0 = const()[name = tensor<string, []>("ssd_conv2d_30_Conv2Dx_groups_0"), val = tensor<int32, []>(1)];
            tensor<int32, [4]> ssd_conv2d_30_Conv2Dx_pad_0 = const()[name = tensor<string, []>("ssd_conv2d_30_Conv2Dx_pad_0"), val = tensor<int32, [4]>([0, 0, 0, 0])];
            tensor<fp16, [672, 112, 1, 1]> ssd_batch_normalization_33_FusedBatchNormV3_nchw_weight_0_to_fp16 = const()[name = tensor<string, []>("ssd_batch_normalization_33_FusedBatchNormV3_nchw_weight_0_to_fp16"), val = tensor<fp16, [672, 112, 1, 1]>(BLOBFILE(path = tensor<string, []>("@model_path/weights/weight.bin"), offset = tensor<uint64, []>(811136)))];
            tensor<fp16, [672]> ssd_batch_normalization_33_FusedBatchNormV3_nchw_bias_0_to_fp16 = const()[name = tensor<string, []>("ssd_batch_normalization_33_FusedBatchNormV3_nchw_bias_0_to_fp16"), val = tensor<fp16, [672]>(BLOBFILE(path = tensor<string, []>("@model_path/weights/weight.bin"), offset = tensor<uint64, []>(961728)))];
            tensor<fp16, [?, 672, 20, 20]> ssd_batch_normalization_33_FusedBatchNormV3_nchw_cast = conv(bias = ssd_batch_normalization_33_FusedBatchNormV3_nchw_bias_0_to_fp16, dilations = ssd_conv2d_30_Conv2Dx_dilations_0, groups = ssd_conv2d_30_Conv2Dx_groups_0, pad = ssd_conv2d_30_Conv2Dx_pad_0, pad_type = ssd_conv2d_30_Conv2Dx_pad_type_0, strides = ssd_conv2d_30_Conv2Dx_strides_0, weight = ssd_batch_normalization_33_FusedBatchNormV3_nchw_weight_0_to_fp16, x = ssd_batch_normalization_32_FusedBatchNormV3_nchw_cast);
            tensor<fp16, []> ssd_rescaling_30_Cast_1_x_to_fp16 = const()[name = tensor<string, []>("ssd_rescaling_30_Cast_1_x_to_fp16"), val = tensor<fp16, []>(0x1.8p+1)];
            tensor<fp16, [?, 672, 20, 20]> ssd_rescaling_30_add_cast = add(x = ssd_batch_normalization_33_FusedBatchNormV3_nchw_cast, y = ssd_rescaling_30_Cast_1_x_to_fp16);
            tensor<fp16, [?, 672, 20, 20]> ssd_re_lu_58_Relu6_cast = relu6(x = ssd_rescaling_30_add_cast);
            tensor<fp16, []> ssd_rescaling_31_Cast_x_to_fp16 = const()[name = tensor<string, []>("ssd_rescaling_31_Cast_x_to_fp16"), val = tensor<fp16, []>(0x1.554p-3)];
            tensor<fp16, [?, 672, 20, 20]> ssd_rescaling_31_mul_cast = mul(x = ssd_re_lu_58_Relu6_cast, y = ssd_rescaling_31_Cast_x_to_fp16);
            tensor<fp16, [?, 672, 20, 20]> ssd_multiply_15_mul_cast = mul(x = ssd_batch_normalization_33_FusedBatchNormV3_nchw_cast, y = ssd_rescaling_31_mul_cast);
            tensor<string, []> ssd_depthwise_conv2d_11_depthwisex_pad_type_0 = const()[name = tensor<string, []>("ssd_depthwise_conv2d_11_depthwisex_pad_type_0"), val = tensor<string, []>("same")];
            tensor<int32, [2]> ssd_depthwise_conv2d_11_depthwisex_strides_0 = const()[name = tensor<string, []>("ssd_depthwise_conv2d_11_depthwisex_strides_0"), val = tensor<int32, [2]>([1, 1])];
            tensor<int32, [2]> ssd_depthwise_conv2d_11_depthwisex_dilations_0 = const()[name = tensor<string, []>("ssd_depthwise_conv2d_11_depthwisex_dilations_0"), val = tensor<int32, [2]>([1, 1])];
            tensor<int32, []> ssd_depthwise_conv2d_11_depthwisex_groups_0 = const()[name = tensor<string, []>("ssd_depthwise_conv2d_11_depthwisex_groups_0"), val = tensor<int32, []>(672)];
            tensor<int32, [4]> ssd_depthwise_conv2d_11_depthwisex_pad_0 = const()[name = tensor<string, []>("ssd_depthwise_conv2d_11_depthwisex_pad_0"), val = tensor<int32, [4]>([0, 0, 0, 0])];
            tensor<fp16, [672, 1, 3, 3]> ssd_batch_normalization_34_FusedBatchNormV3_nchw_weight_0_to_fp16 = const()[name = tensor<string, []>("ssd_batch_normalization_34_FusedBatchNormV3_nchw_weight_0_to_fp16"), val = tensor<fp16, [672, 1, 3, 3]>(BLOBFILE(path = tensor<string, []>("@model_path/weights/weight.bin"), offset = tensor<uint64, []>(963136)))];
            tensor<fp16, [672]> ssd_batch_normalization_34_FusedBatchNormV3_nchw_bias_0_to_fp16 = const()[name = tensor<string, []>("ssd_batch_normalization_34_FusedBatchNormV3_nchw_bias_0_to_fp16"), val = tensor<fp16, [672]>(BLOBFILE(path = tensor<string, []>("@model_path/weights/weight.bin"), offset = tensor<uint64, []>(975296)))];
            tensor<fp16, [?, 672, 20, 20]> ssd_batch_normalization_34_FusedBatchNormV3_nchw_cast = conv(bias = ssd_batch_normalization_34_FusedBatchNormV3_nchw_bias_0_to_fp16, dilations = ssd_depthwise_conv2d_11_depthwisex_dilations_0, groups = ssd_depthwise_conv2d_11_depthwisex_groups_0, pad = ssd_depthwise_conv2d_11_depthwisex_pad_0, pad_type = ssd_depthwise_conv2d_11_depthwisex_pad_type_0, strides = ssd_depthwise_conv2d_11_depthwisex_strides_0, weight = ssd_batch_normalization_34_FusedBatchNormV3_nchw_weight_0_to_fp16, x = ssd_multiply_15_mul_cast);
            tensor<fp16, []> ssd_rescaling_32_Cast_1_x_to_fp16 = const()[name = tensor<string, []>("ssd_rescaling_32_Cast_1_x_to_fp16"), val = tensor<fp16, []>(0x1.8p+1)];
            tensor<fp16, [?, 672, 20, 20]> ssd_rescaling_32_add_cast = add(x = ssd_batch_normalization_34_FusedBatchNormV3_nchw_cast, y = ssd_rescaling_32_Cast_1_x_to_fp16);
            tensor<fp16, [?, 672, 20, 20]> ssd_re_lu_59_Relu6_cast = relu6(x = ssd_rescaling_32_add_cast);
            tensor<fp16, []> ssd_rescaling_33_Cast_x_to_fp16 = const()[name = tensor<string, []>("ssd_rescaling_33_Cast_x_to_fp16"), val = tensor<fp16, []>(0x1.554p-3)];
            tensor<fp16, [?, 672, 20, 20]> ssd_rescaling_33_mul_cast = mul(x = ssd_re_lu_59_Relu6_cast, y = ssd_rescaling_33_Cast_x_to_fp16);
            tensor<fp16, [?, 672, 20, 20]> ssd_multiply_16_mul_cast = mul(x = ssd_batch_normalization_34_FusedBatchNormV3_nchw_cast, y = ssd_rescaling_33_mul_cast);
            tensor<int32, [2]> ssd_global_average_pooling2d_4_Mean_axes_0 = const()[name = tensor<string, []>("ssd_global_average_pooling2d_4_Mean_axes_0"), val = tensor<int32, [2]>([1, 2])];
            tensor<bool, []> ssd_global_average_pooling2d_4_Mean_keep_dims_0 = const()[name = tensor<string, []>("ssd_global_average_pooling2d_4_Mean_keep_dims_0"), val = tensor<bool, []>(false)];
            tensor<int32, [4]> transpose_279_perm_0 = const()[name = tensor<string, []>("transpose_279_perm_0"), val = tensor<int32, [4]>([0, 2, 3, 1])];
            tensor<fp16, [?, 20, 20, 672]> transpose_302 = transpose(perm = transpose_279_perm_0, x = ssd_multiply_16_mul_cast);
            tensor<fp16, [?, 672]> ssd_global_average_pooling2d_4_Mean_cast = reduce_mean(axes = ssd_global_average_pooling2d_4_Mean_axes_0, keep_dims = ssd_global_average_pooling2d_4_Mean_keep_dims_0, x = transpose_302);
            tensor<int32, [4]> ssd_reshape_4_Reshape_shapex = const()[name = tensor<string, []>("ssd_reshape_4_Reshape_shapex"), val = tensor<int32, [4]>([-1, 1, 1, 672])];
            tensor<fp16, [?, 1, 1, 672]> ssd_reshape_4_Reshape_cast = reshape(shape = ssd_reshape_4_Reshape_shapex, x = ssd_global_average_pooling2d_4_Mean_cast);
            tensor<int32, [4]> transpose_122_perm_0 = const()[name = tensor<string, []>("transpose_122_perm_0"), val = tensor<int32, [4]>([0, 3, 1, 2])];
            tensor<string, []> ssd_sequential_6_conv2d_31_Conv2Dx_pad_type_0 = const()[name = tensor<string, []>("ssd_sequential_6_conv2d_31_Conv2Dx_pad_type_0"), val = tensor<string, []>("valid")];
            tensor<int32, [2]> ssd_sequential_6_conv2d_31_Conv2Dx_strides_0 = const()[name = tensor<string, []>("ssd_sequential_6_conv2d_31_Conv2Dx_strides_0"), val = tensor<int32, [2]>([1, 1])];
            tensor<int32, [2]> ssd_sequential_6_conv2d_31_Conv2Dx_dilations_0 = const()[name = tensor<string, []>("ssd_sequential_6_conv2d_31_Conv2Dx_dilations_0"), val = tensor<int32, [2]>([1, 1])];
            tensor<int32, []> ssd_sequential_6_conv2d_31_Conv2Dx_groups_0 = const()[name = tensor<string, []>("ssd_sequential_6_conv2d_31_Conv2Dx_groups_0"), val = tensor<int32, []>(1)];
            tensor<int32, [4]> ssd_sequential_6_conv2d_31_Conv2Dx_pad_0 = const()[name = tensor<string, []>("ssd_sequential_6_conv2d_31_Conv2Dx_pad_0"), val = tensor<int32, [4]>([0, 0, 0, 0])];
            tensor<fp16, [168, 672, 1, 1]> transpose_121_to_fp16 = const()[name = tensor<string, []>("transpose_121_to_fp16"), val = tensor<fp16, [168, 672, 1, 1]>(BLOBFILE(path = tensor<string, []>("@model_path/weights/weight.bin"), offset = tensor<uint64, []>(976704)))];
            tensor<fp16, [168]> const_28_to_fp16 = const()[name = tensor<string, []>("const_28_to_fp16"), val = tensor<fp16, [168]>(BLOBFILE(path = tensor<string, []>("@model_path/weights/weight.bin"), offset = tensor<uint64, []>(1202560)))];
            tensor<fp16, [?, 672, 1, 1]> transpose_301 = transpose(perm = transpose_122_perm_0, x = ssd_reshape_4_Reshape_cast);
            tensor<fp16, [?, 168, 1, 1]> ssd_sequential_6_conv2d_31_BiasAdd_cast = conv(bias = const_28_to_fp16, dilations = ssd_sequential_6_conv2d_31_Conv2Dx_dilations_0, groups = ssd_sequential_6_conv2d_31_Conv2Dx_groups_0, pad = ssd_sequential_6_conv2d_31_Conv2Dx_pad_0, pad_type = ssd_sequential_6_conv2d_31_Conv2Dx_pad_type_0, strides = ssd_sequential_6_conv2d_31_Conv2Dx_strides_0, weight = transpose_121_to_fp16, x = transpose_301);
            tensor<fp16, [?, 168, 1, 1]> ssd_sequential_6_re_lu_15_Relu_cast = relu(x = ssd_sequential_6_conv2d_31_BiasAdd_cast);
            tensor<string, []> ssd_sequential_6_conv2d_32_Conv2Dx_pad_type_0 = const()[name = tensor<string, []>("ssd_sequential_6_conv2d_32_Conv2Dx_pad_type_0"), val = tensor<string, []>("valid")];
            tensor<int32, [2]> ssd_sequential_6_conv2d_32_Conv2Dx_strides_0 = const()[name = tensor<string, []>("ssd_sequential_6_conv2d_32_Conv2Dx_strides_0"), val = tensor<int32, [2]>([1, 1])];
            tensor<int32, [2]> ssd_sequential_6_conv2d_32_Conv2Dx_dilations_0 = const()[name = tensor<string, []>("ssd_sequential_6_conv2d_32_Conv2Dx_dilations_0"), val = tensor<int32, [2]>([1, 1])];
            tensor<int32, []> ssd_sequential_6_conv2d_32_Conv2Dx_groups_0 = const()[name = tensor<string, []>("ssd_sequential_6_conv2d_32_Conv2Dx_groups_0"), val = tensor<int32, []>(1)];
            tensor<int32, [4]> ssd_sequential_6_conv2d_32_Conv2Dx_pad_0 = const()[name = tensor<string, []>("ssd_sequential_6_conv2d_32_Conv2Dx_pad_0"), val = tensor<int32, [4]>([0, 0, 0, 0])];
            tensor<fp16, [672, 168, 1, 1]> transpose_123_to_fp16 = const()[name = tensor<string, []>("transpose_123_to_fp16"), val = tensor<fp16, [672, 168, 1, 1]>(BLOBFILE(path = tensor<string, []>("@model_path/weights/weight.bin"), offset = tensor<uint64, []>(1203008)))];
            tensor<fp16, [672]> const_30_to_fp16 = const()[name = tensor<string, []>("const_30_to_fp16"), val = tensor<fp16, [672]>(BLOBFILE(path = tensor<string, []>("@model_path/weights/weight.bin"), offset = tensor<uint64, []>(1428864)))];
            tensor<fp16, [?, 672, 1, 1]> ssd_rescaling_34_add_cast = conv(bias = const_30_to_fp16, dilations = ssd_sequential_6_conv2d_32_Conv2Dx_dilations_0, groups = ssd_sequential_6_conv2d_32_Conv2Dx_groups_0, pad = ssd_sequential_6_conv2d_32_Conv2Dx_pad_0, pad_type = ssd_sequential_6_conv2d_32_Conv2Dx_pad_type_0, strides = ssd_sequential_6_conv2d_32_Conv2Dx_strides_0, weight = transpose_123_to_fp16, x = ssd_sequential_6_re_lu_15_Relu_cast);
            tensor<fp16, [?, 672, 1, 1]> ssd_re_lu_60_Relu6_cast = relu6(x = ssd_rescaling_34_add_cast);
            tensor<fp16, []> ssd_rescaling_35_Cast_x_to_fp16 = const()[name = tensor<string, []>("ssd_rescaling_35_Cast_x_to_fp16"), val = tensor<fp16, []>(0x1.554p-3)];
            tensor<fp16, [?, 672, 1, 1]> ssd_rescaling_35_mul_cast = mul(x = ssd_re_lu_60_Relu6_cast, y = ssd_rescaling_35_Cast_x_to_fp16);
            tensor<fp16, [?, 672, 20, 20]> ssd_multiply_17_mul_cast = mul(x = ssd_multiply_16_mul_cast, y = ssd_rescaling_35_mul_cast);
            tensor<string, []> ssd_conv2d_33_Conv2Dx_pad_type_0 = const()[name = tensor<string, []>("ssd_conv2d_33_Conv2Dx_pad_type_0"), val = tensor<string, []>("same")];
            tensor<int32, [2]> ssd_conv2d_33_Conv2Dx_strides_0 = const()[name = tensor<string, []>("ssd_conv2d_33_Conv2Dx_strides_0"), val = tensor<int32, [2]>([1, 1])];
            tensor<int32, [2]> ssd_conv2d_33_Conv2Dx_dilations_0 = const()[name = tensor<string, []>("ssd_conv2d_33_Conv2Dx_dilations_0"), val = tensor<int32, [2]>([1, 1])];
            tensor<int32, []> ssd_conv2d_33_Conv2Dx_groups_0 = const()[name = tensor<string, []>("ssd_conv2d_33_Conv2Dx_groups_0"), val = tensor<int32, []>(1)];
            tensor<int32, [4]> ssd_conv2d_33_Conv2Dx_pad_0 = const()[name = tensor<string, []>("ssd_conv2d_33_Conv2Dx_pad_0"), val = tensor<int32, [4]>([0, 0, 0, 0])];
            tensor<fp16, [112, 672, 1, 1]> ssd_batch_normalization_35_FusedBatchNormV3_nchw_weight_0_to_fp16 = const()[name = tensor<string, []>("ssd_batch_normalization_35_FusedBatchNormV3_nchw_weight_0_to_fp16"), val = tensor<fp16, [112, 672, 1, 1]>(BLOBFILE(path = tensor<string, []>("@model_path/weights/weight.bin"), offset = tensor<uint64, []>(1430272)))];
            tensor<fp16, [112]> ssd_batch_normalization_35_FusedBatchNormV3_nchw_bias_0_to_fp16 = const()[name = tensor<string, []>("ssd_batch_normalization_35_FusedBatchNormV3_nchw_bias_0_to_fp16"), val = tensor<fp16, [112]>(BLOBFILE(path = tensor<string, []>("@model_path/weights/weight.bin"), offset = tensor<uint64, []>(1580864)))];
            tensor<fp16, [?, 112, 20, 20]> ssd_batch_normalization_35_FusedBatchNormV3_nchw_cast = conv(bias = ssd_batch_normalization_35_FusedBatchNormV3_nchw_bias_0_to_fp16, dilations = ssd_conv2d_33_Conv2Dx_dilations_0, groups = ssd_conv2d_33_Conv2Dx_groups_0, pad = ssd_conv2d_33_Conv2Dx_pad_0, pad_type = ssd_conv2d_33_Conv2Dx_pad_type_0, strides = ssd_conv2d_33_Conv2Dx_strides_0, weight = ssd_batch_normalization_35_FusedBatchNormV3_nchw_weight_0_to_fp16, x = ssd_multiply_17_mul_cast);
            tensor<fp16, [?, 112, 20, 20]> ssd_add_7_add_cast = add(x = ssd_batch_normalization_35_FusedBatchNormV3_nchw_cast, y = ssd_batch_normalization_32_FusedBatchNormV3_nchw_cast);
            tensor<string, []> ssd_conv2d_34_Conv2Dx_pad_type_0 = const()[name = tensor<string, []>("ssd_conv2d_34_Conv2Dx_pad_type_0"), val = tensor<string, []>("same")];
            tensor<int32, [2]> ssd_conv2d_34_Conv2Dx_strides_0 = const()[name = tensor<string, []>("ssd_conv2d_34_Conv2Dx_strides_0"), val = tensor<int32, [2]>([1, 1])];
            tensor<int32, [2]> ssd_conv2d_34_Conv2Dx_dilations_0 = const()[name = tensor<string, []>("ssd_conv2d_34_Conv2Dx_dilations_0"), val = tensor<int32, [2]>([1, 1])];
            tensor<int32, []> ssd_conv2d_34_Conv2Dx_groups_0 = const()[name = tensor<string, []>("ssd_conv2d_34_Conv2Dx_groups_0"), val = tensor<int32, []>(1)];
            tensor<int32, [4]> ssd_conv2d_34_Conv2Dx_pad_0 = const()[name = tensor<string, []>("ssd_conv2d_34_Conv2Dx_pad_0"), val = tensor<int32, [4]>([0, 0, 0, 0])];
            tensor<fp16, [672, 112, 1, 1]> ssd_batch_normalization_36_FusedBatchNormV3_nchw_weight_0_to_fp16 = const()[name = tensor<string, []>("ssd_batch_normalization_36_FusedBatchNormV3_nchw_weight_0_to_fp16"), val = tensor<fp16, [672, 112, 1, 1]>(BLOBFILE(path = tensor<string, []>("@model_path/weights/weight.bin"), offset = tensor<uint64, []>(1581184)))];
            tensor<fp16, [672]> ssd_batch_normalization_36_FusedBatchNormV3_nchw_bias_0_to_fp16 = const()[name = tensor<string, []>("ssd_batch_normalization_36_FusedBatchNormV3_nchw_bias_0_to_fp16"), val = tensor<fp16, [672]>(BLOBFILE(path = tensor<string, []>("@model_path/weights/weight.bin"), offset = tensor<uint64, []>(1731776)))];
            tensor<fp16, [?, 672, 20, 20]> ssd_batch_normalization_36_FusedBatchNormV3_nchw_cast = conv(bias = ssd_batch_normalization_36_FusedBatchNormV3_nchw_bias_0_to_fp16, dilations = ssd_conv2d_34_Conv2Dx_dilations_0, groups = ssd_conv2d_34_Conv2Dx_groups_0, pad = ssd_conv2d_34_Conv2Dx_pad_0, pad_type = ssd_conv2d_34_Conv2Dx_pad_type_0, strides = ssd_conv2d_34_Conv2Dx_strides_0, weight = ssd_batch_normalization_36_FusedBatchNormV3_nchw_weight_0_to_fp16, x = ssd_add_7_add_cast);
            tensor<fp16, []> ssd_rescaling_36_Cast_1_x_to_fp16 = const()[name = tensor<string, []>("ssd_rescaling_36_Cast_1_x_to_fp16"), val = tensor<fp16, []>(0x1.8p+1)];
            tensor<fp16, [?, 672, 20, 20]> ssd_rescaling_36_add_cast = add(x = ssd_batch_normalization_36_FusedBatchNormV3_nchw_cast, y = ssd_rescaling_36_Cast_1_x_to_fp16);
            tensor<fp16, [?, 672, 20, 20]> ssd_re_lu_61_Relu6_cast = relu6(x = ssd_rescaling_36_add_cast);
            tensor<fp16, []> ssd_rescaling_37_Cast_x_to_fp16 = const()[name = tensor<string, []>("ssd_rescaling_37_Cast_x_to_fp16"), val = tensor<fp16, []>(0x1.554p-3)];
            tensor<fp16, [?, 672, 20, 20]> ssd_rescaling_37_mul_cast = mul(x = ssd_re_lu_61_Relu6_cast, y = ssd_rescaling_37_Cast_x_to_fp16);
            tensor<fp16, [?, 672, 20, 20]> ssd_multiply_18_mul_cast = mul(x = ssd_batch_normalization_36_FusedBatchNormV3_nchw_cast, y = ssd_rescaling_37_mul_cast);
            tensor<string, []> ssd_depthwise_conv2d_25_depthwisex_pad_type_0 = const()[name = tensor<string, []>("ssd_depthwise_conv2d_25_depthwisex_pad_type_0"), val = tensor<string, []>("same")];
            tensor<int32, [2]> ssd_depthwise_conv2d_25_depthwisex_strides_0 = const()[name = tensor<string, []>("ssd_depthwise_conv2d_25_depthwisex_strides_0"), val = tensor<int32, [2]>([1, 1])];
            tensor<int32, [2]> ssd_depthwise_conv2d_25_depthwisex_dilations_0 = const()[name = tensor<string, []>("ssd_depthwise_conv2d_25_depthwisex_dilations_0"), val = tensor<int32, [2]>([1, 1])];
            tensor<int32, []> ssd_depthwise_conv2d_25_depthwisex_groups_0 = const()[name = tensor<string, []>("ssd_depthwise_conv2d_25_depthwisex_groups_0"), val = tensor<int32, []>(672)];
            tensor<int32, [4]> ssd_depthwise_conv2d_25_depthwisex_pad_0 = const()[name = tensor<string, []>("ssd_depthwise_conv2d_25_depthwisex_pad_0"), val = tensor<int32, [4]>([0, 0, 0, 0])];
            tensor<fp16, [672, 1, 3, 3]> ssd_batch_normalization_64_FusedBatchNormV3_nchw_weight_0_to_fp16 = const()[name = tensor<string, []>("ssd_batch_normalization_64_FusedBatchNormV3_nchw_weight_0_to_fp16"), val = tensor<fp16, [672, 1, 3, 3]>(BLOBFILE(path = tensor<string, []>("@model_path/weights/weight.bin"), offset = tensor<uint64, []>(1733184)))];
            tensor<fp16, [672]> ssd_batch_normalization_64_FusedBatchNormV3_nchw_bias_0_to_fp16 = const()[name = tensor<string, []>("ssd_batch_normalization_64_FusedBatchNormV3_nchw_bias_0_to_fp16"), val = tensor<fp16, [672]>(BLOBFILE(path = tensor<string, []>("@model_path/weights/weight.bin"), offset = tensor<uint64, []>(1745344)))];
            tensor<fp16, [?, 672, 20, 20]> ssd_batch_normalization_64_FusedBatchNormV3_nchw_cast = conv(bias = ssd_batch_normalization_64_FusedBatchNormV3_nchw_bias_0_to_fp16, dilations = ssd_depthwise_conv2d_25_depthwisex_dilations_0, groups = ssd_depthwise_conv2d_25_depthwisex_groups_0, pad = ssd_depthwise_conv2d_25_depthwisex_pad_0, pad_type = ssd_depthwise_conv2d_25_depthwisex_pad_type_0, strides = ssd_depthwise_conv2d_25_depthwisex_strides_0, weight = ssd_batch_normalization_64_FusedBatchNormV3_nchw_weight_0_to_fp16, x = ssd_multiply_18_mul_cast);
            tensor<string, []> ssd_zero_padding2d_4_Pad_mode_0 = const()[name = tensor<string, []>("ssd_zero_padding2d_4_Pad_mode_0"), val = tensor<string, []>("constant")];
            tensor<string, []> ssd_depthwise_conv2d_19_depthwisex_pad_type_0 = const()[name = tensor<string, []>("ssd_depthwise_conv2d_19_depthwisex_pad_type_0"), val = tensor<string, []>("same")];
            tensor<int32, [2]> ssd_depthwise_conv2d_19_depthwisex_strides_0 = const()[name = tensor<string, []>("ssd_depthwise_conv2d_19_depthwisex_strides_0"), val = tensor<int32, [2]>([1, 1])];
            tensor<int32, [2]> ssd_depthwise_conv2d_19_depthwisex_dilations_0 = const()[name = tensor<string, []>("ssd_depthwise_conv2d_19_depthwisex_dilations_0"), val = tensor<int32, [2]>([1, 1])];
            tensor<int32, []> ssd_depthwise_conv2d_19_depthwisex_groups_0 = const()[name = tensor<string, []>("ssd_depthwise_conv2d_19_depthwisex_groups_0"), val = tensor<int32, []>(672)];
            tensor<int32, [4]> ssd_depthwise_conv2d_19_depthwisex_pad_0 = const()[name = tensor<string, []>("ssd_depthwise_conv2d_19_depthwisex_pad_0"), val = tensor<int32, [4]>([0, 0, 0, 0])];
            tensor<fp16, [672, 1, 3, 3]> ssd_batch_normalization_58_FusedBatchNormV3_nchw_weight_0_to_fp16 = const()[name = tensor<string, []>("ssd_batch_normalization_58_FusedBatchNormV3_nchw_weight_0_to_fp16"), val = tensor<fp16, [672, 1, 3, 3]>(BLOBFILE(path = tensor<string, []>("@model_path/weights/weight.bin"), offset = tensor<uint64, []>(1746752)))];
            tensor<fp16, [672]> ssd_batch_normalization_58_FusedBatchNormV3_nchw_bias_0_to_fp16 = const()[name = tensor<string, []>("ssd_batch_normalization_58_FusedBatchNormV3_nchw_bias_0_to_fp16"), val = tensor<fp16, [672]>(BLOBFILE(path = tensor<string, []>("@model_path/weights/weight.bin"), offset = tensor<uint64, []>(1758912)))];
            tensor<fp16, [?, 672, 20, 20]> ssd_batch_normalization_58_FusedBatchNormV3_nchw_cast = conv(bias = ssd_batch_normalization_58_FusedBatchNormV3_nchw_bias_0_to_fp16, dilations = ssd_depthwise_conv2d_19_depthwisex_dilations_0, groups = ssd_depthwise_conv2d_19_depthwisex_groups_0, pad = ssd_depthwise_conv2d_19_depthwisex_pad_0, pad_type = ssd_depthwise_conv2d_19_depthwisex_pad_type_0, strides = ssd_depthwise_conv2d_19_depthwisex_strides_0, weight = ssd_batch_normalization_58_FusedBatchNormV3_nchw_weight_0_to_fp16, x = ssd_multiply_18_mul_cast);
            tensor<int32, [8]> pad_4_pad_0 = const()[name = tensor<string, []>("pad_4_pad_0"), val = tensor<int32, [8]>([0, 0, 0, 0, 2, 2, 2, 2])];
            tensor<fp16, []> ssd_zero_padding2d_4_Pad_constant_val_0_to_fp16 = const()[name = tensor<string, []>("ssd_zero_padding2d_4_Pad_constant_val_0_to_fp16"), val = tensor<fp16, []>(0x0p+0)];
            tensor<fp16, [?, 672, 24, 24]> pad_4_cast = pad(constant_val = ssd_zero_padding2d_4_Pad_constant_val_0_to_fp16, mode = ssd_zero_padding2d_4_Pad_mode_0, pad = pad_4_pad_0, x = ssd_multiply_18_mul_cast);
            tensor<string, []> ssd_depthwise_conv2d_12_depthwisex_pad_type_0 = const()[name = tensor<string, []>("ssd_depthwise_conv2d_12_depthwisex_pad_type_0"), val = tensor<string, []>("valid")];
            tensor<int32, [2]> ssd_depthwise_conv2d_12_depthwisex_strides_0 = const()[name = tensor<string, []>("ssd_depthwise_conv2d_12_depthwisex_strides_0"), val = tensor<int32, [2]>([2, 2])];
            tensor<int32, [2]> ssd_depthwise_conv2d_12_depthwisex_dilations_0 = const()[name = tensor<string, []>("ssd_depthwise_conv2d_12_depthwisex_dilations_0"), val = tensor<int32, [2]>([1, 1])];
            tensor<int32, []> ssd_depthwise_conv2d_12_depthwisex_groups_0 = const()[name = tensor<string, []>("ssd_depthwise_conv2d_12_depthwisex_groups_0"), val = tensor<int32, []>(672)];
            tensor<int32, [4]> ssd_depthwise_conv2d_12_depthwisex_pad_0 = const()[name = tensor<string, []>("ssd_depthwise_conv2d_12_depthwisex_pad_0"), val = tensor<int32, [4]>([0, 0, 0, 0])];
            tensor<fp16, [672, 1, 5, 5]> ssd_batch_normalization_37_FusedBatchNormV3_nchw_weight_0_to_fp16 = const()[name = tensor<string, []>("ssd_batch_normalization_37_FusedBatchNormV3_nchw_weight_0_to_fp16"), val = tensor<fp16, [672, 1, 5, 5]>(BLOBFILE(path = tensor<string, []>("@model_path/weights/weight.bin"), offset = tensor<uint64, []>(1760320)))];
            tensor<fp16, [672]> ssd_batch_normalization_37_FusedBatchNormV3_nchw_bias_0_to_fp16 = const()[name = tensor<string, []>("ssd_batch_normalization_37_FusedBatchNormV3_nchw_bias_0_to_fp16"), val = tensor<fp16, [672]>(BLOBFILE(path = tensor<string, []>("@model_path/weights/weight.bin"), offset = tensor<uint64, []>(1793984)))];
            tensor<fp16, [?, 672, 10, 10]> ssd_batch_normalization_37_FusedBatchNormV3_nchw_cast = conv(bias = ssd_batch_normalization_37_FusedBatchNormV3_nchw_bias_0_to_fp16, dilations = ssd_depthwise_conv2d_12_depthwisex_dilations_0, groups = ssd_depthwise_conv2d_12_depthwisex_groups_0, pad = ssd_depthwise_conv2d_12_depthwisex_pad_0, pad_type = ssd_depthwise_conv2d_12_depthwisex_pad_type_0, strides = ssd_depthwise_conv2d_12_depthwisex_strides_0, weight = ssd_batch_normalization_37_FusedBatchNormV3_nchw_weight_0_to_fp16, x = pad_4_cast);
            tensor<fp16, [?, 672, 20, 20]> ssd_re_lu_37_Relu6_cast = relu6(x = ssd_batch_normalization_64_FusedBatchNormV3_nchw_cast);
            tensor<fp16, [?, 672, 20, 20]> ssd_re_lu_31_Relu6_cast = relu6(x = ssd_batch_normalization_58_FusedBatchNormV3_nchw_cast);
            tensor<string, []> ssd_conv2d_61_Conv2Dx_pad_type_0 = const()[name = tensor<string, []>("ssd_conv2d_61_Conv2Dx_pad_type_0"), val = tensor<string, []>("valid")];
            tensor<int32, [2]> ssd_conv2d_61_Conv2Dx_strides_0 = const()[name = tensor<string, []>("ssd_conv2d_61_Conv2Dx_strides_0"), val = tensor<int32, [2]>([1, 1])];
            tensor<int32, [2]> ssd_conv2d_61_Conv2Dx_dilations_0 = const()[name = tensor<string, []>("ssd_conv2d_61_Conv2Dx_dilations_0"), val = tensor<int32, [2]>([1, 1])];
            tensor<int32, []> ssd_conv2d_61_Conv2Dx_groups_0 = const()[name = tensor<string, []>("ssd_conv2d_61_Conv2Dx_groups_0"), val = tensor<int32, []>(1)];
            tensor<int32, [4]> ssd_conv2d_61_Conv2Dx_pad_0 = const()[name = tensor<string, []>("ssd_conv2d_61_Conv2Dx_pad_0"), val = tensor<int32, [4]>([0, 0, 0, 0])];
            tensor<fp16, [24, 672, 1, 1]> conv_0_weight_0_to_fp16 = const()[name = tensor<string, []>("conv_0_weight_0_to_fp16"), val = tensor<fp16, [24, 672, 1, 1]>(BLOBFILE(path = tensor<string, []>("@model_path/weights/weight.bin"), offset = tensor<uint64, []>(1795392)))];
            tensor<fp16, [24]> conv_0_bias_0_to_fp16 = const()[name = tensor<string, []>("conv_0_bias_0_to_fp16"), val = tensor<fp16, [24]>(BLOBFILE(path = tensor<string, []>("@model_path/weights/weight.bin"), offset = tensor<uint64, []>(1827712)))];
            tensor<fp16, [?, 24, 20, 20]> conv_0_cast = conv(bias = conv_0_bias_0_to_fp16, dilations = ssd_conv2d_61_Conv2Dx_dilations_0, groups = ssd_conv2d_61_Conv2Dx_groups_0, pad = ssd_conv2d_61_Conv2Dx_pad_0, pad_type = ssd_conv2d_61_Conv2Dx_pad_type_0, strides = ssd_conv2d_61_Conv2Dx_strides_0, weight = conv_0_weight_0_to_fp16, x = ssd_re_lu_37_Relu6_cast);
            tensor<int32, [4]> ssd_conv2d_61_Conv2D_perm_0 = const()[name = tensor<string, []>("ssd_conv2d_61_Conv2D_perm_0"), val = tensor<int32, [4]>([0, 2, 3, 1])];
            tensor<fp16, []> ssd_rescaling_38_Cast_1_x_to_fp16 = const()[name = tensor<string, []>("ssd_rescaling_38_Cast_1_x_to_fp16"), val = tensor<fp16, []>(0x1.8p+1)];
            tensor<fp16, [?, 672, 10, 10]> ssd_rescaling_38_add_cast = add(x = ssd_batch_normalization_37_FusedBatchNormV3_nchw_cast, y = ssd_rescaling_38_Cast_1_x_to_fp16);
            tensor<string, []> ssd_conv2d_55_Conv2Dx_pad_type_0 = const()[name = tensor<string, []>("ssd_conv2d_55_Conv2Dx_pad_type_0"), val = tensor<string, []>("valid")];
            tensor<int32, [2]> ssd_conv2d_55_Conv2Dx_strides_0 = const()[name = tensor<string, []>("ssd_conv2d_55_Conv2Dx_strides_0"), val = tensor<int32, [2]>([1, 1])];
            tensor<int32, [2]> ssd_conv2d_55_Conv2Dx_dilations_0 = const()[name = tensor<string, []>("ssd_conv2d_55_Conv2Dx_dilations_0"), val = tensor<int32, [2]>([1, 1])];
            tensor<int32, []> ssd_conv2d_55_Conv2Dx_groups_0 = const()[name = tensor<string, []>("ssd_conv2d_55_Conv2Dx_groups_0"), val = tensor<int32, []>(1)];
            tensor<int32, [4]> ssd_conv2d_55_Conv2Dx_pad_0 = const()[name = tensor<string, []>("ssd_conv2d_55_Conv2Dx_pad_0"), val = tensor<int32, [4]>([0, 0, 0, 0])];
            tensor<fp16, [60, 672, 1, 1]> conv_1_weight_0_to_fp16 = const()[name = tensor<string, []>("conv_1_weight_0_to_fp16"), val = tensor<fp16, [60, 672, 1, 1]>(BLOBFILE(path = tensor<string, []>("@model_path/weights/weight.bin"), offset = tensor<uint64, []>(1827840)))];
            tensor<fp16, [60]> conv_1_bias_0_to_fp16 = const()[name = tensor<string, []>("conv_1_bias_0_to_fp16"), val = tensor<fp16, [60]>(BLOBFILE(path = tensor<string, []>("@model_path/weights/weight.bin"), offset = tensor<uint64, []>(1908544)))];
            tensor<fp16, [?, 60, 20, 20]> conv_1_cast = conv(bias = conv_1_bias_0_to_fp16, dilations = ssd_conv2d_55_Conv2Dx_dilations_0, groups = ssd_conv2d_55_Conv2Dx_groups_0, pad = ssd_conv2d_55_Conv2Dx_pad_0, pad_type = ssd_conv2d_55_Conv2Dx_pad_type_0, strides = ssd_conv2d_55_Conv2Dx_strides_0, weight = conv_1_weight_0_to_fp16, x = ssd_re_lu_31_Relu6_cast);
            tensor<int32, [4]> ssd_conv2d_55_Conv2D_perm_0 = const()[name = tensor<string, []>("ssd_conv2d_55_Conv2D_perm_0"), val = tensor<int32, [4]>([0, 2, 3, 1])];
            tensor<fp16, [?, 672, 10, 10]> ssd_re_lu_62_Relu6_cast = relu6(x = ssd_rescaling_38_add_cast);
            tensor<fp16, []> ssd_rescaling_39_Cast_x_to_fp16 = const()[name = tensor<string, []>("ssd_rescaling_39_Cast_x_to_fp16"), val = tensor<fp16, []>(0x1.554p-3)];
            tensor<fp16, [?, 672, 10, 10]> ssd_rescaling_39_mul_cast = mul(x = ssd_re_lu_62_Relu6_cast, y = ssd_rescaling_39_Cast_x_to_fp16);
            tensor<fp16, [?, 672, 10, 10]> ssd_multiply_19_mul_cast = mul(x = ssd_batch_normalization_37_FusedBatchNormV3_nchw_cast, y = ssd_rescaling_39_mul_cast);
            tensor<int32, [2]> ssd_global_average_pooling2d_5_Mean_axes_0 = const()[name = tensor<string, []>("ssd_global_average_pooling2d_5_Mean_axes_0"), val = tensor<int32, [2]>([1, 2])];
            tensor<bool, []> ssd_global_average_pooling2d_5_Mean_keep_dims_0 = const()[name = tensor<string, []>("ssd_global_average_pooling2d_5_Mean_keep_dims_0"), val = tensor<bool, []>(false)];
            tensor<int32, [4]> transpose_280_perm_0 = const()[name = tensor<string, []>("transpose_280_perm_0"), val = tensor<int32, [4]>([0, 2, 3, 1])];
            tensor<fp16, [?, 10, 10, 672]> transpose_298 = transpose(perm = transpose_280_perm_0, x = ssd_multiply_19_mul_cast);
            tensor<fp16, [?, 672]> ssd_global_average_pooling2d_5_Mean_cast = reduce_mean(axes = ssd_global_average_pooling2d_5_Mean_axes_0, keep_dims = ssd_global_average_pooling2d_5_Mean_keep_dims_0, x = transpose_298);
            tensor<int32, [3]> ssd_reshape_6_Reshape_shapex = const()[name = tensor<string, []>("ssd_reshape_6_Reshape_shapex"), val = tensor<int32, [3]>([-1, 2400, 4])];
            tensor<fp16, [?, 20, 20, 24]> transpose_300 = transpose(perm = ssd_conv2d_61_Conv2D_perm_0, x = conv_0_cast);
            tensor<fp16, [?, 2400, 4]> ssd_reshape_6_Reshape_cast = reshape(shape = ssd_reshape_6_Reshape_shapex, x = transpose_300);
            tensor<int32, [3]> ssd_reshape_5_Reshape_shapex = const()[name = tensor<string, []>("ssd_reshape_5_Reshape_shapex"), val = tensor<int32, [3]>([-1, 2400, 10])];
            tensor<fp16, [?, 20, 20, 60]> transpose_299 = transpose(perm = ssd_conv2d_55_Conv2D_perm_0, x = conv_1_cast);
            tensor<fp16, [?, 2400, 10]> ssd_reshape_5_Reshape_cast = reshape(shape = ssd_reshape_5_Reshape_shapex, x = transpose_299);
            tensor<int32, []> ssd_softmax_Softmax_axis_0 = const()[name = tensor<string, []>("ssd_softmax_Softmax_axis_0"), val = tensor<int32, []>(-1)];
            tensor<fp16, [?, 2400, 10]> ssd_softmax_Softmax_cast = softmax(axis = ssd_softmax_Softmax_axis_0, x = ssd_reshape_5_Reshape_cast);
            tensor<int32, [4]> ssd_reshape_7_Reshape_shapex = const()[name = tensor<string, []>("ssd_reshape_7_Reshape_shapex"), val = tensor<int32, [4]>([-1, 1, 1, 672])];
            tensor<fp16, [?, 1, 1, 672]> ssd_reshape_7_Reshape_cast = reshape(shape = ssd_reshape_7_Reshape_shapex, x = ssd_global_average_pooling2d_5_Mean_cast);
            tensor<int32, [4]> transpose_145_perm_0 = const()[name = tensor<string, []>("transpose_145_perm_0"), val = tensor<int32, [4]>([0, 3, 1, 2])];
            tensor<string, []> ssd_sequential_8_conv2d_35_Conv2Dx_pad_type_0 = const()[name = tensor<string, []>("ssd_sequential_8_conv2d_35_Conv2Dx_pad_type_0"), val = tensor<string, []>("valid")];
            tensor<int32, [2]> ssd_sequential_8_conv2d_35_Conv2Dx_strides_0 = const()[name = tensor<string, []>("ssd_sequential_8_conv2d_35_Conv2Dx_strides_0"), val = tensor<int32, [2]>([1, 1])];
            tensor<int32, [2]> ssd_sequential_8_conv2d_35_Conv2Dx_dilations_0 = const()[name = tensor<string, []>("ssd_sequential_8_conv2d_35_Conv2Dx_dilations_0"), val = tensor<int32, [2]>([1, 1])];
            tensor<int32, []> ssd_sequential_8_conv2d_35_Conv2Dx_groups_0 = const()[name = tensor<string, []>("ssd_sequential_8_conv2d_35_Conv2Dx_groups_0"), val = tensor<int32, []>(1)];
            tensor<int32, [4]> ssd_sequential_8_conv2d_35_Conv2Dx_pad_0 = const()[name = tensor<string, []>("ssd_sequential_8_conv2d_35_Conv2Dx_pad_0"), val = tensor<int32, [4]>([0, 0, 0, 0])];
            tensor<fp16, [168, 672, 1, 1]> transpose_144_to_fp16 = const()[name = tensor<string, []>("transpose_144_to_fp16"), val = tensor<fp16, [168, 672, 1, 1]>(BLOBFILE(path = tensor<string, []>("@model_path/weights/weight.bin"), offset = tensor<uint64, []>(1908736)))];
            tensor<fp16, [168]> const_31_to_fp16 = const()[name = tensor<string, []>("const_31_to_fp16"), val = tensor<fp16, [168]>(BLOBFILE(path = tensor<string, []>("@model_path/weights/weight.bin"), offset = tensor<uint64, []>(2134592)))];
            tensor<fp16, [?, 672, 1, 1]> transpose_297 = transpose(perm = transpose_145_perm_0, x = ssd_reshape_7_Reshape_cast);
            tensor<fp16, [?, 168, 1, 1]> ssd_sequential_8_conv2d_35_BiasAdd_cast = conv(bias = const_31_to_fp16, dilations = ssd_sequential_8_conv2d_35_Conv2Dx_dilations_0, groups = ssd_sequential_8_conv2d_35_Conv2Dx_groups_0, pad = ssd_sequential_8_conv2d_35_Conv2Dx_pad_0, pad_type = ssd_sequential_8_conv2d_35_Conv2Dx_pad_type_0, strides = ssd_sequential_8_conv2d_35_Conv2Dx_strides_0, weight = transpose_144_to_fp16, x = transpose_297);
            tensor<fp16, [?, 168, 1, 1]> ssd_sequential_8_re_lu_16_Relu_cast = relu(x = ssd_sequential_8_conv2d_35_BiasAdd_cast);
            tensor<string, []> ssd_sequential_8_conv2d_36_Conv2Dx_pad_type_0 = const()[name = tensor<string, []>("ssd_sequential_8_conv2d_36_Conv2Dx_pad_type_0"), val = tensor<string, []>("valid")];
            tensor<int32, [2]> ssd_sequential_8_conv2d_36_Conv2Dx_strides_0 = const()[name = tensor<string, []>("ssd_sequential_8_conv2d_36_Conv2Dx_strides_0"), val = tensor<int32, [2]>([1, 1])];
            tensor<int32, [2]> ssd_sequential_8_conv2d_36_Conv2Dx_dilations_0 = const()[name = tensor<string, []>("ssd_sequential_8_conv2d_36_Conv2Dx_dilations_0"), val = tensor<int32, [2]>([1, 1])];
            tensor<int32, []> ssd_sequential_8_conv2d_36_Conv2Dx_groups_0 = const()[name = tensor<string, []>("ssd_sequential_8_conv2d_36_Conv2Dx_groups_0"), val = tensor<int32, []>(1)];
            tensor<int32, [4]> ssd_sequential_8_conv2d_36_Conv2Dx_pad_0 = const()[name = tensor<string, []>("ssd_sequential_8_conv2d_36_Conv2Dx_pad_0"), val = tensor<int32, [4]>([0, 0, 0, 0])];
            tensor<fp16, [672, 168, 1, 1]> transpose_146_to_fp16 = const()[name = tensor<string, []>("transpose_146_to_fp16"), val = tensor<fp16, [672, 168, 1, 1]>(BLOBFILE(path = tensor<string, []>("@model_path/weights/weight.bin"), offset = tensor<uint64, []>(2135040)))];
            tensor<fp16, [672]> const_33_to_fp16 = const()[name = tensor<string, []>("const_33_to_fp16"), val = tensor<fp16, [672]>(BLOBFILE(path = tensor<string, []>("@model_path/weights/weight.bin"), offset = tensor<uint64, []>(2360896)))];
            tensor<fp16, [?, 672, 1, 1]> ssd_rescaling_40_add_cast = conv(bias = const_33_to_fp16, dilations = ssd_sequential_8_conv2d_36_Conv2Dx_dilations_0, groups = ssd_sequential_8_conv2d_36_Conv2Dx_groups_0, pad = ssd_sequential_8_conv2d_36_Conv2Dx_pad_0, pad_type = ssd_sequential_8_conv2d_36_Conv2Dx_pad_type_0, strides = ssd_sequential_8_conv2d_36_Conv2Dx_strides_0, weight = transpose_146_to_fp16, x = ssd_sequential_8_re_lu_16_Relu_cast);
            tensor<fp16, [?, 672, 1, 1]> ssd_re_lu_63_Relu6_cast = relu6(x = ssd_rescaling_40_add_cast);
            tensor<fp16, []> ssd_rescaling_41_Cast_x_to_fp16 = const()[name = tensor<string, []>("ssd_rescaling_41_Cast_x_to_fp16"), val = tensor<fp16, []>(0x1.554p-3)];
            tensor<fp16, [?, 672, 1, 1]> ssd_rescaling_41_mul_cast = mul(x = ssd_re_lu_63_Relu6_cast, y = ssd_rescaling_41_Cast_x_to_fp16);
            tensor<fp16, [?, 672, 10, 10]> ssd_multiply_20_mul_cast = mul(x = ssd_multiply_19_mul_cast, y = ssd_rescaling_41_mul_cast);
            tensor<string, []> ssd_conv2d_37_Conv2Dx_pad_type_0 = const()[name = tensor<string, []>("ssd_conv2d_37_Conv2Dx_pad_type_0"), val = tensor<string, []>("same")];
            tensor<int32, [2]> ssd_conv2d_37_Conv2Dx_strides_0 = const()[name = tensor<string, []>("ssd_conv2d_37_Conv2Dx_strides_0"), val = tensor<int32, [2]>([1, 1])];
            tensor<int32, [2]> ssd_conv2d_37_Conv2Dx_dilations_0 = const()[name = tensor<string, []>("ssd_conv2d_37_Conv2Dx_dilations_0"), val = tensor<int32, [2]>([1, 1])];
            tensor<int32, []> ssd_conv2d_37_Conv2Dx_groups_0 = const()[name = tensor<string, []>("ssd_conv2d_37_Conv2Dx_groups_0"), val = tensor<int32, []>(1)];
            tensor<int32, [4]> ssd_conv2d_37_Conv2Dx_pad_0 = const()[name = tensor<string, []>("ssd_conv2d_37_Conv2Dx_pad_0"), val = tensor<int32, [4]>([0, 0, 0, 0])];
            tensor<fp16, [80, 672, 1, 1]> ssd_batch_normalization_38_FusedBatchNormV3_nchw_weight_0_to_fp16 = const()[name = tensor<string, []>("ssd_batch_normalization_38_FusedBatchNormV3_nchw_weight_0_to_fp16"), val = tensor<fp16, [80, 672, 1, 1]>(BLOBFILE(path = tensor<string, []>("@model_path/weights/weight.bin"), offset = tensor<uint64, []>(2362304)))];
            tensor<fp16, [80]> ssd_batch_normalization_38_FusedBatchNormV3_nchw_bias_0_to_fp16 = const()[name = tensor<string, []>("ssd_batch_normalization_38_FusedBatchNormV3_nchw_bias_0_to_fp16"), val = tensor<fp16, [80]>(BLOBFILE(path = tensor<string, []>("@model_path/weights/weight.bin"), offset = tensor<uint64, []>(2469888)))];
            tensor<fp16, [?, 80, 10, 10]> ssd_batch_normalization_38_FusedBatchNormV3_nchw_cast = conv(bias = ssd_batch_normalization_38_FusedBatchNormV3_nchw_bias_0_to_fp16, dilations = ssd_conv2d_37_Conv2Dx_dilations_0, groups = ssd_conv2d_37_Conv2Dx_groups_0, pad = ssd_conv2d_37_Conv2Dx_pad_0, pad_type = ssd_conv2d_37_Conv2Dx_pad_type_0, strides = ssd_conv2d_37_Conv2Dx_strides_0, weight = ssd_batch_normalization_38_FusedBatchNormV3_nchw_weight_0_to_fp16, x = ssd_multiply_20_mul_cast);
            tensor<string, []> ssd_conv2d_38_Conv2Dx_pad_type_0 = const()[name = tensor<string, []>("ssd_conv2d_38_Conv2Dx_pad_type_0"), val = tensor<string, []>("same")];
            tensor<int32, [2]> ssd_conv2d_38_Conv2Dx_strides_0 = const()[name = tensor<string, []>("ssd_conv2d_38_Conv2Dx_strides_0"), val = tensor<int32, [2]>([1, 1])];
            tensor<int32, [2]> ssd_conv2d_38_Conv2Dx_dilations_0 = const()[name = tensor<string, []>("ssd_conv2d_38_Conv2Dx_dilations_0"), val = tensor<int32, [2]>([1, 1])];
            tensor<int32, []> ssd_conv2d_38_Conv2Dx_groups_0 = const()[name = tensor<string, []>("ssd_conv2d_38_Conv2Dx_groups_0"), val = tensor<int32, []>(1)];
            tensor<int32, [4]> ssd_conv2d_38_Conv2Dx_pad_0 = const()[name = tensor<string, []>("ssd_conv2d_38_Conv2Dx_pad_0"), val = tensor<int32, [4]>([0, 0, 0, 0])];
            tensor<fp16, [480, 80, 1, 1]> ssd_batch_normalization_39_FusedBatchNormV3_nchw_weight_0_to_fp16 = const()[name = tensor<string, []>("ssd_batch_normalization_39_FusedBatchNormV3_nchw_weight_0_to_fp16"), val = tensor<fp16, [480, 80, 1, 1]>(BLOBFILE(path = tensor<string, []>("@model_path/weights/weight.bin"), offs…
 []>(4226112)))];
            tensor<fp16, [128]> ssd_batch_normalization_50_FusedBatchNormV3_nchw_bias_0_to_fp16 = const()[name = tensor<string, []>("ssd_batch_normalization_50_FusedBatchNormV3_nchw_bias_0_to_fp16"), val = tensor<fp16, [128]>(BLOBFILE(path = tensor<string, []>("@model_path/weights/weight.bin"), offset = tensor<uint64, []>(4228480)))];
            tensor<fp16, [?, 128, 3, 3]> ssd_batch_normalization_50_FusedBatchNormV3_nchw_cast = conv(bias = ssd_batch_normalization_50_FusedBatchNormV3_nchw_bias_0_to_fp16, dilations = ssd_depthwise_conv2d_16_depthwisex_dilations_0, groups = ssd_depthwise_conv2d_16_depthwisex_groups_0, pad = ssd_depthwise_conv2d_16_depthwisex_pad_0, pad_type = ssd_depthwise_conv2d_16_depthwisex_pad_type_0, strides = ssd_depthwise_conv2d_16_depthwisex_strides_0, weight = ssd_batch_normalization_50_FusedBatchNormV3_nchw_weight_0_to_fp16, x = pad_6_cast);
            tensor<fp16, [?, 128, 3, 3]> ssd_re_lu_23_Relu_cast = relu(x = ssd_batch_normalization_50_FusedBatchNormV3_nchw_cast);
            tensor<string, []> ssd_conv2d_50_Conv2Dx_pad_type_0 = const()[name = tensor<string, []>("ssd_conv2d_50_Conv2Dx_pad_type_0"), val = tensor<string, []>("same")];
            tensor<int32, [2]> ssd_conv2d_50_Conv2Dx_strides_0 = const()[name = tensor<string, []>("ssd_conv2d_50_Conv2Dx_strides_0"), val = tensor<int32, [2]>([1, 1])];
            tensor<int32, [2]> ssd_conv2d_50_Conv2Dx_dilations_0 = const()[name = tensor<string, []>("ssd_conv2d_50_Conv2Dx_dilations_0"), val = tensor<int32, [2]>([1, 1])];
            tensor<int32, []> ssd_conv2d_50_Conv2Dx_groups_0 = const()[name = tensor<string, []>("ssd_conv2d_50_Conv2Dx_groups_0"), val = tensor<int32, []>(1)];
            tensor<int32, [4]> ssd_conv2d_50_Conv2Dx_pad_0 = const()[name = tensor<string, []>("ssd_conv2d_50_Conv2Dx_pad_0"), val = tensor<int32, [4]>([0, 0, 0, 0])];
            tensor<fp16, [256, 128, 1, 1]> ssd_batch_normalization_51_FusedBatchNormV3_nchw_weight_0_to_fp16 = const()[name = tensor<string, []>("ssd_batch_normalization_51_FusedBatchNormV3_nchw_weight_0_to_fp16"), val = tensor<fp16, [256, 128, 1, 1]>(BLOBFILE(path = tensor<string, []>("@model_path/weights/weight.bin"), offset = tensor<uint64, []>(4228800)))];
            tensor<fp16, [256]> ssd_batch_normalization_51_FusedBatchNormV3_nchw_bias_0_to_fp16 = const()[name = tensor<string, []>("ssd_batch_normalization_51_FusedBatchNormV3_nchw_bias_0_to_fp16"), val = tensor<fp16, [256]>(BLOBFILE(path = tensor<string, []>("@model_path/weights/weight.bin"), offset = tensor<uint64, []>(4294400)))];
            tensor<fp16, [?, 256, 3, 3]> ssd_batch_normalization_51_FusedBatchNormV3_nchw_cast = conv(bias = ssd_batch_normalization_51_FusedBatchNormV3_nchw_bias_0_to_fp16, dilations = ssd_conv2d_50_Conv2Dx_dilations_0, groups = ssd_conv2d_50_Conv2Dx_groups_0, pad = ssd_conv2d_50_Conv2Dx_pad_0, pad_type = ssd_conv2d_50_Conv2Dx_pad_type_0, strides = ssd_conv2d_50_Conv2Dx_strides_0, weight = ssd_batch_normalization_51_FusedBatchNormV3_nchw_weight_0_to_fp16, x = ssd_re_lu_23_Relu_cast);
            tensor<int32, [3]> ssd_reshape_13_Reshape_shapex = const()[name = tensor<string, []>("ssd_reshape_13_Reshape_shapex"), val = tensor<int32, [3]>([-1, 150, 4])];
            tensor<fp16, [?, 5, 5, 24]> transpose_290 = transpose(perm = ssd_conv2d_63_Conv2D_perm_0, x = conv_4_cast);
            tensor<fp16, [?, 150, 4]> ssd_reshape_13_Reshape_cast = reshape(shape = ssd_reshape_13_Reshape_shapex, x = transpose_290);
            tensor<int32, [3]> ssd_reshape_12_Reshape_shapex = const()[name = tensor<string, []>("ssd_reshape_12_Reshape_shapex"), val = tensor<int32, [3]>([-1, 150, 10])];
            tensor<fp16, [?, 5, 5, 60]> transpose_289 = transpose(perm = ssd_conv2d_57_Conv2D_perm_0, x = conv_5_cast);
            tensor<fp16, [?, 150, 10]> ssd_reshape_12_Reshape_cast = reshape(shape = ssd_reshape_12_Reshape_shapex, x = transpose_289);
            tensor<fp16, [?, 256, 3, 3]> ssd_re_lu_24_Relu_cast = relu(x = ssd_batch_normalization_51_FusedBatchNormV3_nchw_cast);
            tensor<int32, []> ssd_softmax_2_Softmax_axis_0 = const()[name = tensor<string, []>("ssd_softmax_2_Softmax_axis_0"), val = tensor<int32, []>(-1)];
            tensor<fp16, [?, 150, 10]> ssd_softmax_2_Softmax_cast = softmax(axis = ssd_softmax_2_Softmax_axis_0, x = ssd_reshape_12_Reshape_cast);
            tensor<string, []> ssd_depthwise_conv2d_28_depthwisex_pad_type_0 = const()[name = tensor<string, []>("ssd_depthwise_conv2d_28_depthwisex_pad_type_0"), val = tensor<string, []>("same")];
            tensor<int32, [2]> ssd_depthwise_conv2d_28_depthwisex_strides_0 = const()[name = tensor<string, []>("ssd_depthwise_conv2d_28_depthwisex_strides_0"), val = tensor<int32, [2]>([1, 1])];
            tensor<int32, [2]> ssd_depthwise_conv2d_28_depthwisex_dilations_0 = const()[name = tensor<string, []>("ssd_depthwise_conv2d_28_depthwisex_dilations_0"), val = tensor<int32, [2]>([1, 1])];
            tensor<int32, []> ssd_depthwise_conv2d_28_depthwisex_groups_0 = const()[name = tensor<string, []>("ssd_depthwise_conv2d_28_depthwisex_groups_0"), val = tensor<int32, []>(256)];
            tensor<int32, [4]> ssd_depthwise_conv2d_28_depthwisex_pad_0 = const()[name = tensor<string, []>("ssd_depthwise_conv2d_28_depthwisex_pad_0"), val = tensor<int32, [4]>([0, 0, 0, 0])];
            tensor<fp16, [256, 1, 3, 3]> ssd_batch_normalization_67_FusedBatchNormV3_nchw_weight_0_to_fp16 = const()[name = tensor<string, []>("ssd_batch_normalization_67_FusedBatchNormV3_nchw_weight_0_to_fp16"), val = tensor<fp16, [256, 1, 3, 3]>(BLOBFILE(path = tensor<string, []>("@model_path/weights/weight.bin"), offset = tensor<uint64, []>(4294976)))];
            tensor<fp16, [256]> ssd_batch_normalization_67_FusedBatchNormV3_nchw_bias_0_to_fp16 = const()[name = tensor<string, []>("ssd_batch_normalization_67_FusedBatchNormV3_nchw_bias_0_to_fp16"), val = tensor<fp16, [256]>(BLOBFILE(path = tensor<string, []>("@model_path/weights/weight.bin"), offset = tensor<uint64, []>(4299648)))];
            tensor<fp16, [?, 256, 3, 3]> ssd_batch_normalization_67_FusedBatchNormV3_nchw_cast = conv(bias = ssd_batch_normalization_67_FusedBatchNormV3_nchw_bias_0_to_fp16, dilations = ssd_depthwise_conv2d_28_depthwisex_dilations_0, groups = ssd_depthwise_conv2d_28_depthwisex_groups_0, pad = ssd_depthwise_conv2d_28_depthwisex_pad_0, pad_type = ssd_depthwise_conv2d_28_depthwisex_pad_type_0, strides = ssd_depthwise_conv2d_28_depthwisex_strides_0, weight = ssd_batch_normalization_67_FusedBatchNormV3_nchw_weight_0_to_fp16, x = ssd_re_lu_24_Relu_cast);
            tensor<string, []> ssd_conv2d_51_Conv2Dx_pad_type_0 = const()[name = tensor<string, []>("ssd_conv2d_51_Conv2Dx_pad_type_0"), val = tensor<string, []>("same")];
            tensor<int32, [2]> ssd_conv2d_51_Conv2Dx_strides_0 = const()[name = tensor<string, []>("ssd_conv2d_51_Conv2Dx_strides_0"), val = tensor<int32, [2]>([1, 1])];
            tensor<int32, [2]> ssd_conv2d_51_Conv2Dx_dilations_0 = const()[name = tensor<string, []>("ssd_conv2d_51_Conv2Dx_dilations_0"), val = tensor<int32, [2]>([1, 1])];
            tensor<int32, []> ssd_conv2d_51_Conv2Dx_groups_0 = const()[name = tensor<string, []>("ssd_conv2d_51_Conv2Dx_groups_0"), val = tensor<int32, []>(1)];
            tensor<int32, [4]> ssd_conv2d_51_Conv2Dx_pad_0 = const()[name = tensor<string, []>("ssd_conv2d_51_Conv2Dx_pad_0"), val = tensor<int32, [4]>([0, 0, 0, 0])];
            tensor<fp16, [128, 256, 1, 1]> ssd_batch_normalization_52_FusedBatchNormV3_nchw_weight_0_to_fp16 = const()[name = tensor<string, []>("ssd_batch_normalization_52_FusedBatchNormV3_nchw_weight_0_to_fp16"), val = tensor<fp16, [128, 256, 1, 1]>(BLOBFILE(path = tensor<string, []>("@model_path/weights/weight.bin"), offset = tensor<uint64, []>(4300224)))];
            tensor<fp16, [128]> ssd_batch_normalization_52_FusedBatchNormV3_nchw_bias_0_to_fp16 = const()[name = tensor<string, []>("ssd_batch_normalization_52_FusedBatchNormV3_nchw_bias_0_to_fp16"), val = tensor<fp16, [128]>(BLOBFILE(path = tensor<string, []>("@model_path/weights/weight.bin"), offset = tensor<uint64, []>(4365824)))];
            tensor<fp16, [?, 128, 3, 3]> ssd_batch_normalization_52_FusedBatchNormV3_nchw_cast = conv(bias = ssd_batch_normalization_52_FusedBatchNormV3_nchw_bias_0_to_fp16, dilations = ssd_conv2d_51_Conv2Dx_dilations_0, groups = ssd_conv2d_51_Conv2Dx_groups_0, pad = ssd_conv2d_51_Conv2Dx_pad_0, pad_type = ssd_conv2d_51_Conv2Dx_pad_type_0, strides = ssd_conv2d_51_Conv2Dx_strides_0, weight = ssd_batch_normalization_52_FusedBatchNormV3_nchw_weight_0_to_fp16, x = ssd_re_lu_24_Relu_cast);
            tensor<string, []> ssd_depthwise_conv2d_22_depthwisex_pad_type_0 = const()[name = tensor<string, []>("ssd_depthwise_conv2d_22_depthwisex_pad_type_0"), val = tensor<string, []>("same")];
            tensor<int32, [2]> ssd_depthwise_conv2d_22_depthwisex_strides_0 = const()[name = tensor<string, []>("ssd_depthwise_conv2d_22_depthwisex_strides_0"), val = tensor<int32, [2]>([1, 1])];
            tensor<int32, [2]> ssd_depthwise_conv2d_22_depthwisex_dilations_0 = const()[name = tensor<string, []>("ssd_depthwise_conv2d_22_depthwisex_dilations_0"), val = tensor<int32, [2]>([1, 1])];
            tensor<int32, []> ssd_depthwise_conv2d_22_depthwisex_groups_0 = const()[name = tensor<string, []>("ssd_depthwise_conv2d_22_depthwisex_groups_0"), val = tensor<int32, []>(256)];
            tensor<int32, [4]> ssd_depthwise_conv2d_22_depthwisex_pad_0 = const()[name = tensor<string, []>("ssd_depthwise_conv2d_22_depthwisex_pad_0"), val = tensor<int32, [4]>([0, 0, 0, 0])];
            tensor<fp16, [256, 1, 3, 3]> ssd_batch_normalization_61_FusedBatchNormV3_nchw_weight_0_to_fp16 = const()[name = tensor<string, []>("ssd_batch_normalization_61_FusedBatchNormV3_nchw_weight_0_to_fp16"), val = tensor<fp16, [256, 1, 3, 3]>(BLOBFILE(path = tensor<string, []>("@model_path/weights/weight.bin"), offset = tensor<uint64, []>(4366144)))];
            tensor<fp16, [256]> ssd_batch_normalization_61_FusedBatchNormV3_nchw_bias_0_to_fp16 = const()[name = tensor<string, []>("ssd_batch_normalization_61_FusedBatchNormV3_nchw_bias_0_to_fp16"), val = tensor<fp16, [256]>(BLOBFILE(path = tensor<string, []>("@model_path/weights/weight.bin"), offset = tensor<uint64, []>(4370816)))];
            tensor<fp16, [?, 256, 3, 3]> ssd_batch_normalization_61_FusedBatchNormV3_nchw_cast = conv(bias = ssd_batch_normalization_61_FusedBatchNormV3_nchw_bias_0_to_fp16, dilations = ssd_depthwise_conv2d_22_depthwisex_dilations_0, groups = ssd_depthwise_conv2d_22_depthwisex_groups_0, pad = ssd_depthwise_conv2d_22_depthwisex_pad_0, pad_type = ssd_depthwise_conv2d_22_depthwisex_pad_type_0, strides = ssd_depthwise_conv2d_22_depthwisex_strides_0, weight = ssd_batch_normalization_61_FusedBatchNormV3_nchw_weight_0_to_fp16, x = ssd_re_lu_24_Relu_cast);
            tensor<fp16, [?, 256, 3, 3]> ssd_re_lu_40_Relu6_cast = relu6(x = ssd_batch_normalization_67_FusedBatchNormV3_nchw_cast);
            tensor<fp16, [?, 128, 3, 3]> ssd_re_lu_25_Relu_cast = relu(x = ssd_batch_normalization_52_FusedBatchNormV3_nchw_cast);
            tensor<fp16, [?, 256, 3, 3]> ssd_re_lu_34_Relu6_cast = relu6(x = ssd_batch_normalization_61_FusedBatchNormV3_nchw_cast);
            tensor<string, []> ssd_conv2d_64_Conv2Dx_pad_type_0 = const()[name = tensor<string, []>("ssd_conv2d_64_Conv2Dx_pad_type_0"), val = tensor<string, []>("valid")];
            tensor<int32, [2]> ssd_conv2d_64_Conv2Dx_strides_0 = const()[name = tensor<string, []>("ssd_conv2d_64_Conv2Dx_strides_0"), val = tensor<int32, [2]>([1, 1])];
            tensor<int32, [2]> ssd_conv2d_64_Conv2Dx_dilations_0 = const()[name = tensor<string, []>("ssd_conv2d_64_Conv2Dx_dilations_0"), val = tensor<int32, [2]>([1, 1])];
            tensor<int32, []> ssd_conv2d_64_Conv2Dx_groups_0 = const()[name = tensor<string, []>("ssd_conv2d_64_Conv2Dx_groups_0"), val = tensor<int32, []>(1)];
            tensor<int32, [4]> ssd_conv2d_64_Conv2Dx_pad_0 = const()[name = tensor<string, []>("ssd_conv2d_64_Conv2Dx_pad_0"), val = tensor<int32, [4]>([0, 0, 0, 0])];
            tensor<fp16, [24, 256, 1, 1]> conv_6_weight_0_to_fp16 = const()[name = tensor<string, []>("conv_6_weight_0_to_fp16"), val = tensor<fp16, [24, 256, 1, 1]>(BLOBFILE(path = tensor<string, []>("@model_path/weights/weight.bin"), offset = tensor<uint64, []>(4371392)))];
            tensor<fp16, [24]> conv_6_bias_0_to_fp16 = const()[name = tensor<string, []>("conv_6_bias_0_to_fp16"), val = tensor<fp16, [24]>(BLOBFILE(path = tensor<string, []>("@model_path/weights/weight.bin"), offset = tensor<uint64, []>(4383744)))];
            tensor<fp16, [?, 24, 3, 3]> conv_6_cast = conv(bias = conv_6_bias_0_to_fp16, dilations = ssd_conv2d_64_Conv2Dx_dilations_0, groups = ssd_conv2d_64_Conv2Dx_groups_0, pad = ssd_conv2d_64_Conv2Dx_pad_0, pad_type = ssd_conv2d_64_Conv2Dx_pad_type_0, strides = ssd_conv2d_64_Conv2Dx_strides_0, weight = conv_6_weight_0_to_fp16, x = ssd_re_lu_40_Relu6_cast);
            tensor<int32, [4]> ssd_conv2d_64_Conv2D_perm_0 = const()[name = tensor<string, []>("ssd_conv2d_64_Conv2D_perm_0"), val = tensor<int32, [4]>([0, 2, 3, 1])];
            tensor<string, []> ssd_zero_padding2d_7_Pad_mode_0 = const()[name = tensor<string, []>("ssd_zero_padding2d_7_Pad_mode_0"), val = tensor<string, []>("constant")];
            tensor<string, []> ssd_conv2d_58_Conv2Dx_pad_type_0 = const()[name = tensor<string, []>("ssd_conv2d_58_Conv2Dx_pad_type_0"), val = tensor<string, []>("valid")];
            tensor<int32, [2]> ssd_conv2d_58_Conv2Dx_strides_0 = const()[name = tensor<string, []>("ssd_conv2d_58_Conv2Dx_strides_0"), val = tensor<int32, [2]>([1, 1])];
            tensor<int32, [2]> ssd_conv2d_58_Conv2Dx_dilations_0 = const()[name = tensor<string, []>("ssd_conv2d_58_Conv2Dx_dilations_0"), val = tensor<int32, [2]>([1, 1])];
            tensor<int32, []> ssd_conv2d_58_Conv2Dx_groups_0 = const()[name = tensor<string, []>("ssd_conv2d_58_Conv2Dx_groups_0"), val = tensor<int32, []>(1)];
            tensor<int32, [4]> ssd_conv2d_58_Conv2Dx_pad_0 = const()[name = tensor<string, []>("ssd_conv2d_58_Conv2Dx_pad_0"), val = tensor<int32, [4]>([0, 0, 0, 0])];
            tensor<fp16, [60, 256, 1, 1]> conv_7_weight_0_to_fp16 = const()[name = tensor<string, []>("conv_7_weight_0_to_fp16"), val = tensor<fp16, [60, 256, 1, 1]>(BLOBFILE(path = tensor<string, []>("@model_path/weights/weight.bin"), offset = tensor<uint64, []>(4383872)))];
            tensor<fp16, [60]> conv_7_bias_0_to_fp16 = const()[name = tensor<string, []>("conv_7_bias_0_to_fp16"), val = tensor<fp16, [60]>(BLOBFILE(path = tensor<string, []>("@model_path/weights/weight.bin"), offset = tensor<uint64, []>(4414656)))];
            tensor<fp16, [?, 60, 3, 3]> conv_7_cast = conv(bias = conv_7_bias_0_to_fp16, dilations = ssd_conv2d_58_Conv2Dx_dilations_0, groups = ssd_conv2d_58_Conv2Dx_groups_0, pad = ssd_conv2d_58_Conv2Dx_pad_0, pad_type = ssd_conv2d_58_Conv2Dx_pad_type_0, strides = ssd_conv2d_58_Conv2Dx_strides_0, weight = conv_7_weight_0_to_fp16, x = ssd_re_lu_34_Relu6_cast);
            tensor<int32, [4]> ssd_conv2d_58_Conv2D_perm_0 = const()[name = tensor<string, []>("ssd_conv2d_58_Conv2D_perm_0"), val = tensor<int32, [4]>([0, 2, 3, 1])];
            tensor<int32, [8]> pad_7_pad_0 = const()[name = tensor<string, []>("pad_7_pad_0"), val = tensor<int32, [8]>([0, 0, 0, 0, 1, 1, 1, 1])];
            tensor<fp16, []> ssd_zero_padding2d_7_Pad_constant_val_0_to_fp16 = const()[name = tensor<string, []>("ssd_zero_padding2d_7_Pad_constant_val_0_to_fp16"), val = tensor<fp16, []>(0x0p+0)];
            tensor<fp16, [?, 128, 5, 5]> pad_7_cast = pad(constant_val = ssd_zero_padding2d_7_Pad_constant_val_0_to_fp16, mode = ssd_zero_padding2d_7_Pad_mode_0, pad = pad_7_pad_0, x = ssd_re_lu_25_Relu_cast);
            tensor<string, []> ssd_depthwise_conv2d_17_depthwisex_pad_type_0 = const()[name = tensor<string, []>("ssd_depthwise_conv2d_17_depthwisex_pad_type_0"), val = tensor<string, []>("valid")];
            tensor<int32, [2]> ssd_depthwise_conv2d_17_depthwisex_strides_0 = const()[name = tensor<string, []>("ssd_depthwise_conv2d_17_depthwisex_strides_0"), val = tensor<int32, [2]>([2, 2])];
            tensor<int32, [2]> ssd_depthwise_conv2d_17_depthwisex_dilations_0 = const()[name = tensor<string, []>("ssd_depthwise_conv2d_17_depthwisex_dilations_0"), val = tensor<int32, [2]>([1, 1])];
            tensor<int32, []> ssd_depthwise_conv2d_17_depthwisex_groups_0 = const()[name = tensor<string, []>("ssd_depthwise_conv2d_17_depthwisex_groups_0"), val = tensor<int32, []>(128)];
            tensor<int32, [4]> ssd_depthwise_conv2d_17_depthwisex_pad_0 = const()[name = tensor<string, []>("ssd_depthwise_conv2d_17_depthwisex_pad_0"), val = tensor<int32, [4]>([0, 0, 0, 0])];
            tensor<fp16, [128, 1, 3, 3]> ssd_batch_normalization_53_FusedBatchNormV3_nchw_weight_0_to_fp16 = const()[name = tensor<string, []>("ssd_batch_normalization_53_FusedBatchNormV3_nchw_weight_0_to_fp16"), val = tensor<fp16, [128, 1, 3, 3]>(BLOBFILE(path = tensor<string, []>("@model_path/weights/weight.bin"), offset = tensor<uint64, []>(4414848)))];
            tensor<fp16, [128]> ssd_batch_normalization_53_FusedBatchNormV3_nchw_bias_0_to_fp16 = const()[name = tensor<string, []>("ssd_batch_normalization_53_FusedBatchNormV3_nchw_bias_0_to_fp16"), val = tensor<fp16, [128]>(BLOBFILE(path = tensor<string, []>("@model_path/weights/weight.bin"), offset = tensor<uint64, []>(4417216)))];
            tensor<fp16, [?, 128, 2, 2]> ssd_batch_normalization_53_FusedBatchNormV3_nchw_cast = conv(bias = ssd_batch_normalization_53_FusedBatchNormV3_nchw_bias_0_to_fp16, dilations = ssd_depthwise_conv2d_17_depthwisex_dilations_0, groups = ssd_depthwise_conv2d_17_depthwisex_groups_0, pad = ssd_depthwise_conv2d_17_depthwisex_pad_0, pad_type = ssd_depthwise_conv2d_17_depthwisex_pad_type_0, strides = ssd_depthwise_conv2d_17_depthwisex_strides_0, weight = ssd_batch_normalization_53_FusedBatchNormV3_nchw_weight_0_to_fp16, x = pad_7_cast);
            tensor<fp16, [?, 128, 2, 2]> ssd_re_lu_26_Relu_cast = relu(x = ssd_batch_normalization_53_FusedBatchNormV3_nchw_cast);
            tensor<string, []> ssd_conv2d_52_Conv2Dx_pad_type_0 = const()[name = tensor<string, []>("ssd_conv2d_52_Conv2Dx_pad_type_0"), val = tensor<string, []>("same")];
            tensor<int32, [2]> ssd_conv2d_52_Conv2Dx_strides_0 = const()[name = tensor<string, []>("ssd_conv2d_52_Conv2Dx_strides_0"), val = tensor<int32, [2]>([1, 1])];
            tensor<int32, [2]> ssd_conv2d_52_Conv2Dx_dilations_0 = const()[name = tensor<string, []>("ssd_conv2d_52_Conv2Dx_dilations_0"), val = tensor<int32, [2]>([1, 1])];
            tensor<int32, []> ssd_conv2d_52_Conv2Dx_groups_0 = const()[name = tensor<string, []>("ssd_conv2d_52_Conv2Dx_groups_0"), val = tensor<int32, []>(1)];
            tensor<int32, [4]> ssd_conv2d_52_Conv2Dx_pad_0 = const()[name = tensor<string, []>("ssd_conv2d_52_Conv2Dx_pad_0"), val = tensor<int32, [4]>([0, 0, 0, 0])];
            tensor<fp16, [256, 128, 1, 1]> ssd_batch_normalization_54_FusedBatchNormV3_nchw_weight_0_to_fp16 = const()[name = tensor<string, []>("ssd_batch_normalization_54_FusedBatchNormV3_nchw_weight_0_to_fp16"), val = tensor<fp16, [256, 128, 1, 1]>(BLOBFILE(path = tensor<string, []>("@model_path/weights/weight.bin"), offset = tensor<uint64, []>(4417536)))];
            tensor<fp16, [256]> ssd_batch_normalization_54_FusedBatchNormV3_nchw_bias_0_to_fp16 = const()[name = tensor<string, []>("ssd_batch_normalization_54_FusedBatchNormV3_nchw_bias_0_to_fp16"), val = tensor<fp16, [256]>(BLOBFILE(path = tensor<string, []>("@model_path/weights/weight.bin"), offset = tensor<uint64, []>(4483136)))];
            tensor<fp16, [?, 256, 2, 2]> ssd_batch_normalization_54_FusedBatchNormV3_nchw_cast = conv(bias = ssd_batch_normalization_54_FusedBatchNormV3_nchw_bias_0_to_fp16, dilations = ssd_conv2d_52_Conv2Dx_dilations_0, groups = ssd_conv2d_52_Conv2Dx_groups_0, pad = ssd_conv2d_52_Conv2Dx_pad_0, pad_type = ssd_conv2d_52_Conv2Dx_pad_type_0, strides = ssd_conv2d_52_Conv2Dx_strides_0, weight = ssd_batch_normalization_54_FusedBatchNormV3_nchw_weight_0_to_fp16, x = ssd_re_lu_26_Relu_cast);
            tensor<int32, [3]> ssd_reshape_15_Reshape_shapex = const()[name = tensor<string, []>("ssd_reshape_15_Reshape_shapex"), val = tensor<int32, [3]>([-1, 54, 4])];
            tensor<fp16, [?, 3, 3, 24]> transpose_288 = transpose(perm = ssd_conv2d_64_Conv2D_perm_0, x = conv_6_cast);
            tensor<fp16, [?, 54, 4]> ssd_reshape_15_Reshape_cast = reshape(shape = ssd_reshape_15_Reshape_shapex, x = transpose_288);
            tensor<int32, [3]> ssd_reshape_14_Reshape_shapex = const()[name = tensor<string, []>("ssd_reshape_14_Reshape_shapex"), val = tensor<int32, [3]>([-1, 54, 10])];
            tensor<fp16, [?, 3, 3, 60]> transpose_287 = transpose(perm = ssd_conv2d_58_Conv2D_perm_0, x = conv_7_cast);
            tensor<fp16, [?, 54, 10]> ssd_reshape_14_Reshape_cast = reshape(shape = ssd_reshape_14_Reshape_shapex, x = transpose_287);
            tensor<fp16, [?, 256, 2, 2]> ssd_re_lu_27_Relu_cast = relu(x = ssd_batch_normalization_54_FusedBatchNormV3_nchw_cast);
            tensor<int32, []> ssd_softmax_3_Softmax_axis_0 = const()[name = tensor<string, []>("ssd_softmax_3_Softmax_axis_0"), val = tensor<int32, []>(-1)];
            tensor<fp16, [?, 54, 10]> ssd_softmax_3_Softmax_cast = softmax(axis = ssd_softmax_3_Softmax_axis_0, x = ssd_reshape_14_Reshape_cast);
            tensor<string, []> ssd_depthwise_conv2d_29_depthwisex_pad_type_0 = const()[name = tensor<string, []>("ssd_depthwise_conv2d_29_depthwisex_pad_type_0"), val = tensor<string, []>("same")];
            tensor<int32, [2]> ssd_depthwise_conv2d_29_depthwisex_strides_0 = const()[name = tensor<string, []>("ssd_depthwise_conv2d_29_depthwisex_strides_0"), val = tensor<int32, [2]>([1, 1])];
            tensor<int32, [2]> ssd_depthwise_conv2d_29_depthwisex_dilations_0 = const()[name = tensor<string, []>("ssd_depthwise_conv2d_29_depthwisex_dilations_0"), val = tensor<int32, [2]>([1, 1])];
            tensor<int32, []> ssd_depthwise_conv2d_29_depthwisex_groups_0 = const()[name = tensor<string, []>("ssd_depthwise_conv2d_29_depthwisex_groups_0"), val = tensor<int32, []>(256)];
            tensor<int32, [4]> ssd_depthwise_conv2d_29_depthwisex_pad_0 = const()[name = tensor<string, []>("ssd_depthwise_conv2d_29_depthwisex_pad_0"), val = tensor<int32, [4]>([0, 0, 0, 0])];
            tensor<fp16, [256, 1, 3, 3]> ssd_batch_normalization_68_FusedBatchNormV3_nchw_weight_0_to_fp16 = const()[name = tensor<string, []>("ssd_batch_normalization_68_FusedBatchNormV3_nchw_weight_0_to_fp16"), val = tensor<fp16, [256, 1, 3, 3]>(BLOBFILE(path = tensor<string, []>("@model_path/weights/weight.bin"), offset = tensor<uint64, []>(4483712)))];
            tensor<fp16, [256]> ssd_batch_normalization_68_FusedBatchNormV3_nchw_bias_0_to_fp16 = const()[name = tensor<string, []>("ssd_batch_normalization_68_FusedBatchNormV3_nchw_bias_0_to_fp16"), val = tensor<fp16, [256]>(BLOBFILE(path = tensor<string, []>("@model_path/weights/weight.bin"), offset = tensor<uint64, []>(4488384)))];
            tensor<fp16, [?, 256, 2, 2]> ssd_batch_normalization_68_FusedBatchNormV3_nchw_cast = conv(bias = ssd_batch_normalization_68_FusedBatchNormV3_nchw_bias_0_to_fp16, dilations = ssd_depthwise_conv2d_29_depthwisex_dilations_0, groups = ssd_depthwise_conv2d_29_depthwisex_groups_0, pad = ssd_depthwise_conv2d_29_depthwisex_pad_0, pad_type = ssd_depthwise_conv2d_29_depthwisex_pad_type_0, strides = ssd_depthwise_conv2d_29_depthwisex_strides_0, weight = ssd_batch_normalization_68_FusedBatchNormV3_nchw_weight_0_to_fp16, x = ssd_re_lu_27_Relu_cast);
            tensor<string, []> ssd_conv2d_53_Conv2Dx_pad_type_0 = const()[name = tensor<string, []>("ssd_conv2d_53_Conv2Dx_pad_type_0"), val = tensor<string, []>("same")];
            tensor<int32, [2]> ssd_conv2d_53_Conv2Dx_strides_0 = const()[name = tensor<string, []>("ssd_conv2d_53_Conv2Dx_strides_0"), val = tensor<int32, [2]>([1, 1])];
            tensor<int32, [2]> ssd_conv2d_53_Conv2Dx_dilations_0 = const()[name = tensor<string, []>("ssd_conv2d_53_Conv2Dx_dilations_0"), val = tensor<int32, [2]>([1, 1])];
            tensor<int32, []> ssd_conv2d_53_Conv2Dx_groups_0 = const()[name = tensor<string, []>("ssd_conv2d_53_Conv2Dx_groups_0"), val = tensor<int32, []>(1)];
            tensor<int32, [4]> ssd_conv2d_53_Conv2Dx_pad_0 = const()[name = tensor<string, []>("ssd_conv2d_53_Conv2Dx_pad_0"), val = tensor<int32, [4]>([0, 0, 0, 0])];
            tensor<fp16, [64, 256, 1, 1]> ssd_batch_normalization_55_FusedBatchNormV3_nchw_weight_0_to_fp16 = const()[name = tensor<string, []>("ssd_batch_normalization_55_FusedBatchNormV3_nchw_weight_0_to_fp16"), val = tensor<fp16, [64, 256, 1, 1]>(BLOBFILE(path = tensor<string, []>("@model_path/weights/weight.bin"), offset = tensor<uint64, []>(4488960)))];
            tensor<fp16, [64]> ssd_batch_normalization_55_FusedBatchNormV3_nchw_bias_0_to_fp16 = const()[name = tensor<string, []>("ssd_batch_normalization_55_FusedBatchNormV3_nchw_bias_0_to_fp16"), val = tensor<fp16, [64]>(BLOBFILE(path = tensor<string, []>("@model_path/weights/weight.bin"), offset = tensor<uint64, []>(4521792)))];
            tensor<fp16, [?, 64, 2, 2]> ssd_batch_normalization_55_FusedBatchNormV3_nchw_cast = conv(bias = ssd_batch_normalization_55_FusedBatchNormV3_nchw_bias_0_to_fp16, dilations = ssd_conv2d_53_Conv2Dx_dilations_0, groups = ssd_conv2d_53_Conv2Dx_groups_0, pad = ssd_conv2d_53_Conv2Dx_pad_0, pad_type = ssd_conv2d_53_Conv2Dx_pad_type_0, strides = ssd_conv2d_53_Conv2Dx_strides_0, weight = ssd_batch_normalization_55_FusedBatchNormV3_nchw_weight_0_to_fp16, x = ssd_re_lu_27_Relu_cast);
            tensor<string, []> ssd_depthwise_conv2d_23_depthwisex_pad_type_0 = const()[name = tensor<string, []>("ssd_depthwise_conv2d_23_depthwisex_pad_type_0"), val = tensor<string, []>("same")];
            tensor<int32, [2]> ssd_depthwise_conv2d_23_depthwisex_strides_0 = const()[name = tensor<string, []>("ssd_depthwise_conv2d_23_depthwisex_strides_0"), val = tensor<int32, [2]>([1, 1])];
            tensor<int32, [2]> ssd_depthwise_conv2d_23_depthwisex_dilations_0 = const()[name = tensor<string, []>("ssd_depthwise_conv2d_23_depthwisex_dilations_0"), val = tensor<int32, [2]>([1, 1])];
            tensor<int32, []> ssd_depthwise_conv2d_23_depthwisex_groups_0 = const()[name = tensor<string, []>("ssd_depthwise_conv2d_23_depthwisex_groups_0"), val = tensor<int32, []>(256)];
            tensor<int32, [4]> ssd_depthwise_conv2d_23_depthwisex_pad_0 = const()[name = tensor<string, []>("ssd_depthwise_conv2d_23_depthwisex_pad_0"), val = tensor<int32, [4]>([0, 0, 0, 0])];
            tensor<fp16, [256, 1, 3, 3]> ssd_batch_normalization_62_FusedBatchNormV3_nchw_weight_0_to_fp16 = const()[name = tensor<string, []>("ssd_batch_normalization_62_FusedBatchNormV3_nchw_weight_0_to_fp16"), val = tensor<fp16, [256, 1, 3, 3]>(BLOBFILE(path = tensor<string, []>("@model_path/weights/weight.bin"), offset = tensor<uint64, []>(4521984)))];
            tensor<fp16, [256]> ssd_batch_normalization_62_FusedBatchNormV3_nchw_bias_0_to_fp16 = const()[name = tensor<string, []>("ssd_batch_normalization_62_FusedBatchNormV3_nchw_bias_0_to_fp16"), val = tensor<fp16, [256]>(BLOBFILE(path = tensor<string, []>("@model_path/weights/weight.bin"), offset = tensor<uint64, []>(4526656)))];
            tensor<fp16, [?, 256, 2, 2]> ssd_batch_normalization_62_FusedBatchNormV3_nchw_cast = conv(bias = ssd_batch_normalization_62_FusedBatchNormV3_nchw_bias_0_to_fp16, dilations = ssd_depthwise_conv2d_23_depthwisex_dilations_0, groups = ssd_depthwise_conv2d_23_depthwisex_groups_0, pad = ssd_depthwise_conv2d_23_depthwisex_pad_0, pad_type = ssd_depthwise_conv2d_23_depthwisex_pad_type_0, strides = ssd_depthwise_conv2d_23_depthwisex_strides_0, weight = ssd_batch_normalization_62_FusedBatchNormV3_nchw_weight_0_to_fp16, x = ssd_re_lu_27_Relu_cast);
            tensor<fp16, [?, 256, 2, 2]> ssd_re_lu_41_Relu6_cast = relu6(x = ssd_batch_normalization_68_FusedBatchNormV3_nchw_cast);
            tensor<fp16, [?, 64, 2, 2]> ssd_re_lu_28_Relu_cast = relu(x = ssd_batch_normalization_55_FusedBatchNormV3_nchw_cast);
            tensor<fp16, [?, 256, 2, 2]> ssd_re_lu_35_Relu6_cast = relu6(x = ssd_batch_normalization_62_FusedBatchNormV3_nchw_cast);
            tensor<string, []> ssd_conv2d_65_Conv2Dx_pad_type_0 = const()[name = tensor<string, []>("ssd_conv2d_65_Conv2Dx_pad_type_0"), val = tensor<string, []>("valid")];
            tensor<int32, [2]> ssd_conv2d_65_Conv2Dx_strides_0 = const()[name = tensor<string, []>("ssd_conv2d_65_Conv2Dx_strides_0"), val = tensor<int32, [2]>([1, 1])];
            tensor<int32, [2]> ssd_conv2d_65_Conv2Dx_dilations_0 = const()[name = tensor<string, []>("ssd_conv2d_65_Conv2Dx_dilations_0"), val = tensor<int32, [2]>([1, 1])];
            tensor<int32, []> ssd_conv2d_65_Conv2Dx_groups_0 = const()[name = tensor<string, []>("ssd_conv2d_65_Conv2Dx_groups_0"), val = tensor<int32, []>(1)];
            tensor<int32, [4]> ssd_conv2d_65_Conv2Dx_pad_0 = const()[name = tensor<string, []>("ssd_conv2d_65_Conv2Dx_pad_0"), val = tensor<int32, [4]>([0, 0, 0, 0])];
            tensor<fp16, [24, 256, 1, 1]> conv_8_weight_0_to_fp16 = const()[name = tensor<string, []>("conv_8_weight_0_to_fp16"), val = tensor<fp16, [24, 256, 1, 1]>(BLOBFILE(path = tensor<string, []>("@model_path/weights/weight.bin"), offset = tensor<uint64, []>(4527232)))];
            tensor<fp16, [24]> conv_8_bias_0_to_fp16 = const()[name = tensor<string, []>("conv_8_bias_0_to_fp16"), val = tensor<fp16, [24]>(BLOBFILE(path = tensor<string, []>("@model_path/weights/weight.bin"), offset = tensor<uint64, []>(4539584)))];
            tensor<fp16, [?, 24, 2, 2]> conv_8_cast = conv(bias = conv_8_bias_0_to_fp16, dilations = ssd_conv2d_65_Conv2Dx_dilations_0, groups = ssd_conv2d_65_Conv2Dx_groups_0, pad = ssd_conv2d_65_Conv2Dx_pad_0, pad_type = ssd_conv2d_65_Conv2Dx_pad_type_0, strides = ssd_conv2d_65_Conv2Dx_strides_0, weight = conv_8_weight_0_to_fp16, x = ssd_re_lu_41_Relu6_cast);
            tensor<int32, [4]> ssd_conv2d_65_Conv2D_perm_0 = const()[name = tensor<string, []>("ssd_conv2d_65_Conv2D_perm_0"), val = tensor<int32, [4]>([0, 2, 3, 1])];
            tensor<string, []> ssd_zero_padding2d_8_Pad_mode_0 = const()[name = tensor<string, []>("ssd_zero_padding2d_8_Pad_mode_0"), val = tensor<string, []>("constant")];
            tensor<string, []> ssd_conv2d_59_Conv2Dx_pad_type_0 = const()[name = tensor<string, []>("ssd_conv2d_59_Conv2Dx_pad_type_0"), val = tensor<string, []>("valid")];
            tensor<int32, [2]> ssd_conv2d_59_Conv2Dx_strides_0 = const()[name = tensor<string, []>("ssd_conv2d_59_Conv2Dx_strides_0"), val = tensor<int32, [2]>([1, 1])];
            tensor<int32, [2]> ssd_conv2d_59_Conv2Dx_dilations_0 = const()[name = tensor<string, []>("ssd_conv2d_59_Conv2Dx_dilations_0"), val = tensor<int32, [2]>([1, 1])];
            tensor<int32, []> ssd_conv2d_59_Conv2Dx_groups_0 = const()[name = tensor<string, []>("ssd_conv2d_59_Conv2Dx_groups_0"), val = tensor<int32, []>(1)];
            tensor<int32, [4]> ssd_conv2d_59_Conv2Dx_pad_0 = const()[name = tensor<string, []>("ssd_conv2d_59_Conv2Dx_pad_0"), val = tensor<int32, [4]>([0, 0, 0, 0])];
            tensor<fp16, [60, 256, 1, 1]> conv_9_weight_0_to_fp16 = const()[name = tensor<string, []>("conv_9_weight_0_to_fp16"), val = tensor<fp16, [60, 256, 1, 1]>(BLOBFILE(path = tensor<string, []>("@model_path/weights/weight.bin"), offset = tensor<uint64, []>(4539712)))];
            tensor<fp16, [60]> conv_9_bias_0_to_fp16 = const()[name = tensor<string, []>("conv_9_bias_0_to_fp16"), val = tensor<fp16, [60]>(BLOBFILE(path = tensor<string, []>("@model_path/weights/weight.bin"), offset = tensor<uint64, []>(4570496)))];
            tensor<fp16, [?, 60, 2, 2]> conv_9_cast = conv(bias = conv_9_bias_0_to_fp16, dilations = ssd_conv2d_59_Conv2Dx_dilations_0, groups = ssd_conv2d_59_Conv2Dx_groups_0, pad = ssd_conv2d_59_Conv2Dx_pad_0, pad_type = ssd_conv2d_59_Conv2Dx_pad_type_0, strides = ssd_conv2d_59_Conv2Dx_strides_0, weight = conv_9_weight_0_to_fp16, x = ssd_re_lu_35_Relu6_cast);
            tensor<int32, [4]> ssd_conv2d_59_Conv2D_perm_0 = const()[name = tensor<string, []>("ssd_conv2d_59_Conv2D_perm_0"), val = tensor<int32, [4]>([0, 2, 3, 1])];
            tensor<int32, [8]> pad_8_pad_0 = const()[name = tensor<string, []>("pad_8_pad_0"), val = tensor<int32, [8]>([0, 0, 0, 0, 1, 1, 1, 1])];
            tensor<fp16, []> ssd_zero_padding2d_8_Pad_constant_val_0_to_fp16 = const()[name = tensor<string, []>("ssd_zero_padding2d_8_Pad_constant_val_0_to_fp16"), val = tensor<fp16, []>(0x0p+0)];
            tensor<fp16, [?, 64, 4, 4]> pad_8_cast = pad(constant_val = ssd_zero_padding2d_8_Pad_constant_val_0_to_fp16, mode = ssd_zero_padding2d_8_Pad_mode_0, pad = pad_8_pad_0, x = ssd_re_lu_28_Relu_cast);
            tensor<string, []> ssd_depthwise_conv2d_18_depthwisex_pad_type_0 = const()[name = tensor<string, []>("ssd_depthwise_conv2d_18_depthwisex_pad_type_0"), val = tensor<string, []>("valid")];
            tensor<int32, [2]> ssd_depthwise_conv2d_18_depthwisex_strides_0 = const()[name = tensor<string, []>("ssd_depthwise_conv2d_18_depthwisex_strides_0"), val = tensor<int32, [2]>([2, 2])];
            tensor<int32, [2]> ssd_depthwise_conv2d_18_depthwisex_dilations_0 = const()[name = tensor<string, []>("ssd_depthwise_conv2d_18_depthwisex_dilations_0"), val = tensor<int32, [2]>([1, 1])];
            tensor<int32, []> ssd_depthwise_conv2d_18_depthwisex_groups_0 = const()[name = tensor<string, []>("ssd_depthwise_conv2d_18_depthwisex_groups_0"), val = tensor<int32, []>(64)];
            tensor<int32, [4]> ssd_depthwise_conv2d_18_depthwisex_pad_0 = const()[name = tensor<string, []>("ssd_depthwise_conv2d_18_depthwisex_pad_0"), val = tensor<int32, [4]>([0, 0, 0, 0])];
            tensor<fp16, [64, 1, 3, 3]> ssd_batch_normalization_56_FusedBatchNormV3_nchw_weight_0_to_fp16 = const()[name = tensor<string, []>("ssd_batch_normalization_56_FusedBatchNormV3_nchw_weight_0_to_fp16"), val = tensor<fp16, [64, 1, 3, 3]>(BLOBFILE(path = tensor<string, []>("@model_path/weights/weight.bin"), offset = tensor<uint64, []>(4570688)))];
            tensor<fp16, [64]> ssd_batch_normalization_56_FusedBatchNormV3_nchw_bias_0_to_fp16 = const()[name = tensor<string, []>("ssd_batch_normalization_56_FusedBatchNormV3_nchw_bias_0_to_fp16"), val = tensor<fp16, [64]>(BLOBFILE(path = tensor<string, []>("@model_path/weights/weight.bin"), offset = tensor<uint64, []>(4571904)))];
            tensor<fp16, [?, 64, 1, 1]> ssd_batch_normalization_56_FusedBatchNormV3_nchw_cast = conv(bias = ssd_batch_normalization_56_FusedBatchNormV3_nchw_bias_0_to_fp16, dilations = ssd_depthwise_conv2d_18_depthwisex_dilations_0, groups = ssd_depthwise_conv2d_18_depthwisex_groups_0, pad = ssd_depthwise_conv2d_18_depthwisex_pad_0, pad_type = ssd_depthwise_conv2d_18_depthwisex_pad_type_0, strides = ssd_depthwise_conv2d_18_depthwisex_strides_0, weight = ssd_batch_normalization_56_FusedBatchNormV3_nchw_weight_0_to_fp16, x = pad_8_cast);
            tensor<fp16, [?, 64, 1, 1]> ssd_re_lu_29_Relu_cast = relu(x = ssd_batch_normalization_56_FusedBatchNormV3_nchw_cast);
            tensor<string, []> ssd_conv2d_54_Conv2Dx_pad_type_0 = const()[name = tensor<string, []>("ssd_conv2d_54_Conv2Dx_pad_type_0"), val = tensor<string, []>("same")];
            tensor<int32, [2]> ssd_conv2d_54_Conv2Dx_strides_0 = const()[name = tensor<string, []>("ssd_conv2d_54_Conv2Dx_strides_0"), val = tensor<int32, [2]>([1, 1])];
            tensor<int32, [2]> ssd_conv2d_54_Conv2Dx_dilations_0 = const()[name = tensor<string, []>("ssd_conv2d_54_Conv2Dx_dilations_0"), val = tensor<int32, [2]>([1, 1])];
            tensor<int32, []> ssd_conv2d_54_Conv2Dx_groups_0 = const()[name = tensor<string, []>("ssd_conv2d_54_Conv2Dx_groups_0"), val = tensor<int32, []>(1)];
            tensor<int32, [4]> ssd_conv2d_54_Conv2Dx_pad_0 = const()[name = tensor<string, []>("ssd_conv2d_54_Conv2Dx_pad_0"), val = tensor<int32, [4]>([0, 0, 0, 0])];
            tensor<fp16, [128, 64, 1, 1]> ssd_batch_normalization_57_FusedBatchNormV3_nchw_weight_0_to_fp16 = const()[name = tensor<string, []>("ssd_batch_normalization_57_FusedBatchNormV3_nchw_weight_0_to_fp16"), val = tensor<fp16, [128, 64, 1, 1]>(BLOBFILE(path = tensor<string, []>("@model_path/weights/weight.bin"), offset = tensor<uint64, []>(4572096)))];
            tensor<fp16, [128]> ssd_batch_normalization_57_FusedBatchNormV3_nchw_bias_0_to_fp16 = const()[name = tensor<string, []>("ssd_batch_normalization_57_FusedBatchNormV3_nchw_bias_0_to_fp16"), val = tensor<fp16, [128]>(BLOBFILE(path = tensor<string, []>("@model_path/weights/weight.bin"), offset = tensor<uint64, []>(4588544)))];
            tensor<fp16, [?, 128, 1, 1]> ssd_batch_normalization_57_FusedBatchNormV3_nchw_cast = conv(bias = ssd_batch_normalization_57_FusedBatchNormV3_nchw_bias_0_to_fp16, dilations = ssd_conv2d_54_Conv2Dx_dilations_0, groups = ssd_conv2d_54_Conv2Dx_groups_0, pad = ssd_conv2d_54_Conv2Dx_pad_0, pad_type = ssd_conv2d_54_Conv2Dx_pad_type_0, strides = ssd_conv2d_54_Conv2Dx_strides_0, weight = ssd_batch_normalization_57_FusedBatchNormV3_nchw_weight_0_to_fp16, x = ssd_re_lu_29_Relu_cast);
            tensor<int32, [3]> ssd_reshape_17_Reshape_shapex = const()[name = tensor<string, []>("ssd_reshape_17_Reshape_shapex"), val = tensor<int32, [3]>([-1, 24, 4])];
            tensor<fp16, [?, 2, 2, 24]> transpose_286 = transpose(perm = ssd_conv2d_65_Conv2D_perm_0, x = conv_8_cast);
            tensor<fp16, [?, 24, 4]> ssd_reshape_17_Reshape_cast = reshape(shape = ssd_reshape_17_Reshape_shapex, x = transpose_286);
            tensor<int32, [3]> ssd_reshape_16_Reshape_shapex = const()[name = tensor<string, []>("ssd_reshape_16_Reshape_shapex"), val = tensor<int32, [3]>([-1, 24, 10])];
            tensor<fp16, [?, 2, 2, 60]> transpose_285 = transpose(perm = ssd_conv2d_59_Conv2D_perm_0, x = conv_9_cast);
            tensor<fp16, [?, 24, 10]> ssd_reshape_16_Reshape_cast = reshape(shape = ssd_reshape_16_Reshape_shapex, x = transpose_285);
            tensor<fp16, [?, 128, 1, 1]> ssd_re_lu_30_Relu_cast = relu(x = ssd_batch_normalization_57_FusedBatchNormV3_nchw_cast);
            tensor<int32, []> ssd_softmax_4_Softmax_axis_0 = const()[name = tensor<string, []>("ssd_softmax_4_Softmax_axis_0"), val = tensor<int32, []>(-1)];
            tensor<fp16, [?, 24, 10]> ssd_softmax_4_Softmax_cast = softmax(axis = ssd_softmax_4_Softmax_axis_0, x = ssd_reshape_16_Reshape_cast);
            tensor<string, []> ssd_depthwise_conv2d_30_depthwisex_pad_type_0 = const()[name = tensor<string, []>("ssd_depthwise_conv2d_30_depthwisex_pad_type_0"), val = tensor<string, []>("same")];
            tensor<int32, [2]> ssd_depthwise_conv2d_30_depthwisex_strides_0 = const()[name = tensor<string, []>("ssd_depthwise_conv2d_30_depthwisex_strides_0"), val = tensor<int32, [2]>([1, 1])];
            tensor<int32, [2]> ssd_depthwise_conv2d_30_depthwisex_dilations_0 = const()[name = tensor<string, []>("ssd_depthwise_conv2d_30_depthwisex_dilations_0"), val = tensor<int32, [2]>([1, 1])];
            tensor<int32, []> ssd_depthwise_conv2d_30_depthwisex_groups_0 = const()[name = tensor<string, []>("ssd_depthwise_conv2d_30_depthwisex_groups_0"), val = tensor<int32, []>(128)];
            tensor<int32, [4]> ssd_depthwise_conv2d_30_depthwisex_pad_0 = const()[name = tensor<string, []>("ssd_depthwise_conv2d_30_depthwisex_pad_0"), val = tensor<int32, [4]>([0, 0, 0, 0])];
            tensor<fp16, [128, 1, 3, 3]> ssd_batch_normalization_69_FusedBatchNormV3_nchw_weight_0_to_fp16 = const()[name = tensor<string, []>("ssd_batch_normalization_69_FusedBatchNormV3_nchw_weight_0_to_fp16"), val = tensor<fp16, [128, 1, 3, 3]>(BLOBFILE(path = tensor<string, []>("@model_path/weights/weight.bin"), offset = tensor<uint64, []>(4588864)))];
            tensor<fp16, [128]> ssd_batch_normalization_69_FusedBatchNormV3_nchw_bias_0_to_fp16 = const()[name = tensor<string, []>("ssd_batch_normalization_69_FusedBatchNormV3_nchw_bias_0_to_fp16"), val = tensor<fp16, [128]>(BLOBFILE(path = tensor<string, []>("@model_path/weights/weight.bin"), offset = tensor<uint64, []>(4591232)))];
            tensor<fp16, [?, 128, 1, 1]> ssd_batch_normalization_69_FusedBatchNormV3_nchw_cast = conv(bias = ssd_batch_normalization_69_FusedBatchNormV3_nchw_bias_0_to_fp16, dilations = ssd_depthwise_conv2d_30_depthwisex_dilations_0, groups = ssd_depthwise_conv2d_30_depthwisex_groups_0, pad = ssd_depthwise_conv2d_30_depthwisex_pad_0, pad_type = ssd_depthwise_conv2d_30_depthwisex_pad_type_0, strides = ssd_depthwise_conv2d_30_depthwisex_strides_0, weight = ssd_batch_normalization_69_FusedBatchNormV3_nchw_weight_0_to_fp16, x = ssd_re_lu_30_Relu_cast);
            tensor<string, []> ssd_depthwise_conv2d_24_depthwisex_pad_type_0 = const()[name = tensor<string, []>("ssd_depthwise_conv2d_24_depthwisex_pad_type_0"), val = tensor<string, []>("same")];
            tensor<int32, [2]> ssd_depthwise_conv2d_24_depthwisex_strides_0 = const()[name = tensor<string, []>("ssd_depthwise_conv2d_24_depthwisex_strides_0"), val = tensor<int32, [2]>([1, 1])];
            tensor<int32, [2]> ssd_depthwise_conv2d_24_depthwisex_dilations_0 = const()[name = tensor<string, []>("ssd_depthwise_conv2d_24_depthwisex_dilations_0"), val = tensor<int32, [2]>([1, 1])];
            tensor<int32, []> ssd_depthwise_conv2d_24_depthwisex_groups_0 = const()[name = tensor<string, []>("ssd_depthwise_conv2d_24_depthwisex_groups_0"), val = tensor<int32, []>(128)];
            tensor<int32, [4]> ssd_depthwise_conv2d_24_depthwisex_pad_0 = const()[name = tensor<string, []>("ssd_depthwise_conv2d_24_depthwisex_pad_0"), val = tensor<int32, [4]>([0, 0, 0, 0])];
            tensor<fp16, [128, 1, 3, 3]> ssd_batch_normalization_63_FusedBatchNormV3_nchw_weight_0_to_fp16 = const()[name = tensor<string, []>("ssd_batch_normalization_63_FusedBatchNormV3_nchw_weight_0_to_fp16"), val = tensor<fp16, [128, 1, 3, 3]>(BLOBFILE(path = tensor<string, []>("@model_path/weights/weight.bin"), offset = tensor<uint64, []>(4591552)))];
            tensor<fp16, [128]> ssd_batch_normalization_63_FusedBatchNormV3_nchw_bias_0_to_fp16 = const()[name = tensor<string, []>("ssd_batch_normalization_63_FusedBatchNormV3_nchw_bias_0_to_fp16"), val = tensor<fp16, [128]>(BLOBFILE(path = tensor<string, []>("@model_path/weights/weight.bin"), offset = tensor<uint64, []>(4593920)))];
            tensor<fp16, [?, 128, 1, 1]> ssd_batch_normalization_63_FusedBatchNormV3_nchw_cast = conv(bias = ssd_batch_normalization_63_FusedBatchNormV3_nchw_bias_0_to_fp16, dilations = ssd_depthwise_conv2d_24_depthwisex_dilations_0, groups = ssd_depthwise_conv2d_24_depthwisex_groups_0, pad = ssd_depthwise_conv2d_24_depthwisex_pad_0, pad_type = ssd_depthwise_conv2d_24_depthwisex_pad_type_0, strides = ssd_depthwise_conv2d_24_depthwisex_strides_0, weight = ssd_batch_normalization_63_FusedBatchNormV3_nchw_weight_0_to_fp16, x = ssd_re_lu_30_Relu_cast);
            tensor<fp16, [?, 128, 1, 1]> ssd_re_lu_42_Relu6_cast = relu6(x = ssd_batch_normalization_69_FusedBatchNormV3_nchw_cast);
            tensor<fp16, [?, 128, 1, 1]> ssd_re_lu_36_Relu6_cast = relu6(x = ssd_batch_normalization_63_FusedBatchNormV3_nchw_cast);
            tensor<string, []> ssd_conv2d_66_Conv2Dx_pad_type_0 = const()[name = tensor<string, []>("ssd_conv2d_66_Conv2Dx_pad_type_0"), val = tensor<string, []>("valid")];
            tensor<int32, [2]> ssd_conv2d_66_Conv2Dx_strides_0 = const()[name = tensor<string, []>("ssd_conv2d_66_Conv2Dx_strides_0"), val = tensor<int32, [2]>([1, 1])];
            tensor<int32, [2]> ssd_conv2d_66_Conv2Dx_dilations_0 = const()[name = tensor<string, []>("ssd_conv2d_66_Conv2Dx_dilations_0"), val = tensor<int32, [2]>([1, 1])];
            tensor<int32, []> ssd_conv2d_66_Conv2Dx_groups_0 = const()[name = tensor<string, []>("ssd_conv2d_66_Conv2Dx_groups_0"), val = tensor<int32, []>(1)];
            tensor<int32, [4]> ssd_conv2d_66_Conv2Dx_pad_0 = const()[name = tensor<string, []>("ssd_conv2d_66_Conv2Dx_pad_0"), val = tensor<int32, [4]>([0, 0, 0, 0])];
            tensor<fp16, [24, 128, 1, 1]> conv_10_weight_0_to_fp16 = const()[name = tensor<string, []>("conv_10_weight_0_to_fp16"), val = tensor<fp16, [24, 128, 1, 1]>(BLOBFILE(path = tensor<string, []>("@model_path/weights/weight.bin"), offset = tensor<uint64, []>(4594240)))];
            tensor<fp16, [24]> conv_10_bias_0_to_fp16 = const()[name = tensor<string, []>("conv_10_bias_0_to_fp16"), val = tensor<fp16, [24]>(BLOBFILE(path = tensor<string, []>("@model_path/weights/weight.bin"), offset = tensor<uint64, []>(4600448)))];
            tensor<fp16, [?, 24, 1, 1]> conv_10_cast = conv(bias = conv_10_bias_0_to_fp16, dilations = ssd_conv2d_66_Conv2Dx_dilations_0, groups = ssd_conv2d_66_Conv2Dx_groups_0, pad = ssd_conv2d_66_Conv2Dx_pad_0, pad_type = ssd_conv2d_66_Conv2Dx_pad_type_0, strides = ssd_conv2d_66_Conv2Dx_strides_0, weight = conv_10_weight_0_to_fp16, x = ssd_re_lu_42_Relu6_cast);
            tensor<int32, [4]> ssd_conv2d_66_Conv2D_perm_0 = const()[name = tensor<string, []>("ssd_conv2d_66_Conv2D_perm_0"), val = tensor<int32, [4]>([0, 2, 3, 1])];
            tensor<string, []> ssd_conv2d_60_Conv2Dx_pad_type_0 = const()[name = tensor<string, []>("ssd_conv2d_60_Conv2Dx_pad_type_0"), val = tensor<string, []>("valid")];
            tensor<int32, [2]> ssd_conv2d_60_Conv2Dx_strides_0 = const()[name = tensor<string, []>("ssd_conv2d_60_Conv2Dx_strides_0"), val = tensor<int32, [2]>([1, 1])];
            tensor<int32, [2]> ssd_conv2d_60_Conv2Dx_dilations_0 = const()[name = tensor<string, []>("ssd_conv2d_60_Conv2Dx_dilations_0"), val = tensor<int32, [2]>([1, 1])];
            tensor<int32, []> ssd_conv2d_60_Conv2Dx_groups_0 = const()[name = tensor<string, []>("ssd_conv2d_60_Conv2Dx_groups_0"), val = tensor<int32, []>(1)];
            tensor<int32, [4]> ssd_conv2d_60_Conv2Dx_pad_0 = const()[name = tensor<string, []>("ssd_conv2d_60_Conv2Dx_pad_0"), val = tensor<int32, [4]>([0, 0, 0, 0])];
            tensor<fp16, [60, 128, 1, 1]> conv_11_weight_0_to_fp16 = const()[name = tensor<string, []>("conv_11_weight_0_to_fp16"), val = tensor<fp16, [60, 128, 1, 1]>(BLOBFILE(path = tensor<string, []>("@model_path/weights/weight.bin"), offset = tensor<uint64, []>(4600576)))];
            tensor<fp16, [60]> conv_11_bias_0_to_fp16 = const()[name = tensor<string, []>("conv_11_bias_0_to_fp16"), val = tensor<fp16, [60]>(BLOBFILE(path = tensor<string, []>("@model_path/weights/weight.bin"), offset = tensor<uint64, []>(4616000)))];
            tensor<fp16, [?, 60, 1, 1]> conv_11_cast = conv(bias = conv_11_bias_0_to_fp16, dilations = ssd_conv2d_60_Conv2Dx_dilations_0, groups = ssd_conv2d_60_Conv2Dx_groups_0, pad = ssd_conv2d_60_Conv2Dx_pad_0, pad_type = ssd_conv2d_60_Conv2Dx_pad_type_0, strides = ssd_conv2d_60_Conv2Dx_strides_0, weight = conv_11_weight_0_to_fp16, x = ssd_re_lu_36_Relu6_cast);
            tensor<int32, [4]> ssd_conv2d_60_Conv2D_perm_0 = const()[name = tensor<string, []>("ssd_conv2d_60_Conv2D_perm_0"), val = tensor<int32, [4]>([0, 2, 3, 1])];
            tensor<int32, [3]> ssd_reshape_19_Reshape_shapex = const()[name = tensor<string, []>("ssd_reshape_19_Reshape_shapex"), val = tensor<int32, [3]>([-1, 6, 4])];
            tensor<fp16, [?, 1, 1, 24]> transpose_284 = transpose(perm = ssd_conv2d_66_Conv2D_perm_0, x = conv_10_cast);
            tensor<fp16, [?, 6, 4]> ssd_reshape_19_Reshape_cast = reshape(shape = ssd_reshape_19_Reshape_shapex, x = transpose_284);
            tensor<int32, [3]> ssd_reshape_18_Reshape_shapex = const()[name = tensor<string, []>("ssd_reshape_18_Reshape_shapex"), val = tensor<int32, [3]>([-1, 6, 10])];
            tensor<fp16, [?, 1, 1, 60]> transpose_283 = transpose(perm = ssd_conv2d_60_Conv2D_perm_0, x = conv_11_cast);
            tensor<fp16, [?, 6, 10]> ssd_reshape_18_Reshape_cast = reshape(shape = ssd_reshape_18_Reshape_shapex, x = transpose_283);
            tensor<bool, []> ssd_concatenate_concat_interleave_0 = const()[name = tensor<string, []>("ssd_concatenate_concat_interleave_0"), val = tensor<bool, []>(false)];
            tensor<fp16, [?, 3234, 4]> ssd_concatenate_concat_cast = concat(axis = ssd_concatenate_concat_axis, interleave = ssd_concatenate_concat_interleave_0, values = (ssd_reshape_6_Reshape_cast, ssd_reshape_11_Reshape_cast, ssd_reshape_13_Reshape_cast, ssd_reshape_15_Reshape_cast, ssd_reshape_17_Reshape_cast, ssd_reshape_19_Reshape_cast));
            tensor<int32, []> ssd_softmax_5_Softmax_axis_0 = const()[name = tensor<string, []>("ssd_softmax_5_Softmax_axis_0"), val = tensor<int32, []>(-1)];
            tensor<fp16, [?, 6, 10]> ssd_softmax_5_Softmax_cast = softmax(axis = ssd_softmax_5_Softmax_axis_0, x = ssd_reshape_18_Reshape_cast);
            tensor<bool, []> ssd_concatenate_1_concat_interleave_0 = const()[name = tensor<string, []>("ssd_concatenate_1_concat_interleave_0"), val = tensor<bool, []>(false)];
            tensor<fp16, [?, 3234, 10]> ssd_concatenate_1_concat_cast = concat(axis = ssd_concatenate_1_concat_axis, interleave = ssd_concatenate_1_concat_interleave_0, values = (ssd_softmax_Softmax_cast, ssd_softmax_1_Softmax_cast, ssd_softmax_2_Softmax_cast, ssd_softmax_3_Softmax_cast, ssd_softmax_4_Softmax_cast, ssd_softmax_5_Softmax_cast));
            tensor<string, []> ssd_reshape_20_Reshape_cast_to_fp32_dtype_0 = const()[name = tensor<string, []>("ssd_reshape_20_Reshape_cast_to_fp32_dtype_0"), val = tensor<string, []>("fp32")];
            tensor<string, []> ssd_reshape_21_Reshape_cast_to_fp32_dtype_0 = const()[name = tensor<string, []>("ssd_reshape_21_Reshape_cast_to_fp32_dtype_0"), val = tensor<string, []>("fp32")];
            tensor<fp32, [?, 3234, 10]> Identity_1 = cast(dtype = ssd_reshape_21_Reshape_cast_to_fp32_dtype_0, x = ssd_concatenate_1_concat_cast);
            tensor<fp32, [?, 3234, 4]> Identity = cast(dtype = ssd_reshape_20_Reshape_cast_to_fp32_dtype_0, x = ssd_concatenate_concat_cast);
        } -> (Identity_1, Identity);
}